two_agent_swap/magail_models_gpu/D1.pth (torch, 20950 bytes, 5 tensors)

net.0.weight f4 [64, 6]
0	0x3eae01ef	0.3398585
1	0x3eb3b75c	0.3510083
2	0x3e55671b	0.20840113
3	0xbe472fae	-0.19451782
4	0xbe0d408a	-0.13794151
5	0xbe5f19f8	-0.2178725
6	0x3eec2b84	0.4612695
7	0x3edc16f3	0.4298626
8	0x3cd130c5	0.02553595
9	0xbe898be3	-0.26864538
10	0xbef5692f	-0.4793181
11	0xbd99d492	-0.07511248
12	0xbed563ca	-0.41677696
13	0x3e255e41	0.16149236
14	0xbe8f2035	-0.2795426
15	0x3df0e0d1	0.1176163
16	0x3cd5901e	0.026069697
17	0xbedf0e49	-0.43565586
18	0x3e36f198	0.17865598
19	0xbdf7066e	-0.12061773
20	0xbe0ca1fe	-0.1373367
21	0x3ebeb019	0.37243727
22	0x3e1508d9	0.14554156
23	0xbf1f501c	-0.6223161
24	0xbdde65a6	-0.10859232
25	0xbda74162	-0.08166768
26	0x3dd429bd	0.103595234
27	0x3e519aaa	0.20469156
28	0x3ee998e8	0.4562447
29	0xbe5630ff	-0.20917128
30	0x3eb4075e	0.3516187
31	0xbf01bbf2	-0.50677407
32	0x3e8b7c14	0.27243102
33	0x3e39a8f3	0.18130855
34	0xbecb1275	-0.3966252
35	0x3e312dc7	0.17302619
36	0xbe9755ab	-0.29557547
37	0xbcae45e9	-0.02127357
38	0x3e034df1	0.12822701
39	0xbc75a89d	-0.014993814
40	0x3e9ff410	0.31240892
41	0x3c2a06a7	0.010377563
42	0x3ec34602	0.3813935
43	0xbe32d215	-0.17462952
44	0xbe02567e	-0.12728307
45	0xbd1ddf7f	-0.03854322
46	0xbe9f15e9	-0.31071404
47	0xbde6b273	-0.11264505
48	0xbde71a4a	-0.11284311
49	0xbf36d0de	-0.71412456
50	0x3e6e3b69	0.2326485
51	0x3d350e76	0.044203244
52	0xbe5312fb	-0.20612709
53	0x3f0ed141	0.55788046
54	0x3cf0fa8c	0.029416345
55	0x3bdeee2f	0.006803296
56	0x3d2ba524	0.041905537
57	0x3d9d3c97	0.07677572
58	0x3ee0cb26	0.4390499
59	0xbefe35fc	-0.49650562
60	0xbf09ee4b	-0.5387923
61	0xbe857ef0	-0.26073408
62	0xbe806fbd	-0.2508525
63	0xbda0d091	-0.07852281
64	0x3e998a4f	0.29988334
65	0x3c680a19	0.014162564
66	0x3e52ecde	0.2059817
67	0xbe899d6f	-0.26877925
68	0xbddac4aa	-0.10682042
69	0xbe98756f	-0.29777095
70	0x3e87d0ce	0.26526493
71	0x3f3260f2	0.69679177
72	0xbe417bfe	-0.18894956
73	0x3e0d9b47	0.13828765
74	0x3e0ced46	0.13762388
75	0x3ed440b9	0.4145563
76	0x3e0f7496	0.14009318
77	0xbdf5dbdc	-0.120048255
78	0xbec8ac7e	-0.391941
79	0x3e076ad5	0.13224347
80	0x3e14f038	0.14544761
81	0xbeb26bb9	-0.3484781
82	0x3eadd0a7	0.33948252
83	0x3da17eac	0.07885489
84	0x3e0d63d3	0.13807611
85	0x3d6c7614	0.057729796
86	0xbe43455c	-0.19069427
87	0x3d09aa28	0.03360954
88	0xbf0d1110	-0.5510416
89	0x3eba67fe	0.36407465
90	0xbe585356	-0.2112554
91	0xbefe4140	-0.49659157
92	0xbe096bb1	-0.13419987
93	0xbe5acb83	-0.21366696
94	0xbd9a000f	-0.075195424
95	0x3f053316	0.52031076
96	0xbe5136ef	-0.20431112
97	0x3e03823a	0.12842646
98	0xbc87a1ec	-0.016556703
99	0x3e09d779	0.13461103
100	0x3eb3c064	0.3510772
101	0x3ec233b2	0.37930065
102	0x3e721d3c	0.23643965
103	0x3e080dd0	0.13286519
104	0x3e7ee956	0.24893698
105	0xbe2cb6be	-0.16866586
106	0xbe8d4192	-0.2758909
107	0xbea4016d	-0.32032338
108	0xbd201144	-0.039078966
109	0xbe6c7895	-0.23092873
110	0x3e0d9066	0.13824615
111	0xbecf1295	-0.40443864
112	0x3ec21a27	0.37910578
113	0x3efac272	0.48976475
114	0x3e226dec	0.15862244
115	0xbe26be58	-0.16283548
116	0x3e167e88	0.14696705
117	0x3ea98c5d	0.331149
118	0xbe0a3034	-0.1349495
119	0xbe8ada87	-0.27119848
120	0x3eceb235	0.40370336
121	0xbe86542d	-0.26236096
122	0xbe96fa14	-0.2948767
123	0x3e9260b5	0.28589407
124	0x3dcfbaa9	0.101430245
125	0x3ea68104	0.32520306
126	0x3dfb70de	0.12277387
127	0x3de8aa80	0.11360645
128	0xbde45b3f	-0.11150216
129	0xbdbd2f67	-0.09237557
130	0x3ecb245b	0.39676175
131	0xbe249db7	-0.16075788
132	0xbed948e5	-0.42438427
133	0xbeca3026	-0.3948986
134	0xbdeb1bd2	-0.11479916
135	0x3d6b8c14	0.057506636
136	0x3ebccceb	0.3687509
137	0x3eeb1e57	0.45921585
138	0x3d35c410	0.044376433
139	0x3eb9c13b	0.36280236
140	0xbe3ce703	-0.18447499
141	0x3e869cce	0.26291507
142	0x3e7d86e0	0.24758482
143	0xbefea365	-0.49734035
144	0xbeaf6e40	-0.34263802
145	0xbe814a4e	-0.25252002
146	0xbe07a867	-0.13247834
147	0x3eae0405	0.33987442
148	0x3e224ba0	0.15849161
149	0xbe2f53da	-0.1712183
150	0x3d4f5fbd	0.050628413
151	0xbe9098f4	-0.28241694
152	0x3d80112b	0.062532745
153	0x3e4f6e21	0.20256855
154	0x3d6a00cd	0.05712967
155	0xbd65c3ce	-0.056094937
156	0xbe880e5d	-0.26573458
157	0x3eb5e80c	0.355286
158	0x3ea4a9c1	0.32160762
159	0xbda12347	-0.07868057
160	0x3e2ba15d	0.16760774
161	0xbe6bf065	-0.23040922
162	0x3e42306e	0.18963787
163	0xbf11a1c7	-0.5688748
164	0xbe9fc0f3	-0.31201896
165	0x3e914ce3	0.28378972
166	0xbe8f1a7f	-0.27949902
167	0x3f096588	0.5367055
168	0x3e9dee84	0.30846035
169	0x3e4e5718	0.20150411
170	0xbe97e64a	-0.29667884
171	0x3c92836a	0.017884929
172	0xbdc589c7	-0.096454196
173	0xbed2ec31	-0.41195825
174	0x3eeea0af	0.46606967
175	0xbe12fb67	-0.14353715
176	0xbe289507	-0.164631
177	0xbe1b6781	-0.15176202
178	0xbe4b089e	-0.19827506
179	0x3df12c56	0.117760345
180	0x3efb3478	0.49063468
181	0xbea199df	-0.31562707
182	0x3e316c7e	0.17326543
183	0x3d4fff47	0.05078056
184	0x3e02abd1	0.12760855
185	0x3e2d3824	0.16915947
186	0xbdba5f4b	-0.09100207
187	0x3ede0e66	0.4337036
188	0xbe6a3dff	-0.22875212
189	0x3e3c4a27	0.18387662
190	0xbeb7ad53	-0.35874423
191	0xbeeb3b65	-0.45943752
192	0x3e0f1b5b	0.13975279
193	0xbdcc615b	-0.099795066
194	0xbecfd82c	-0.40594614
195	0xbe205c8e	-0.15660307
196	0x3e8237c2	0.25433165
197	0xbdbcdb4e	-0.092215165
198	0xbec3186f	-0.3810458
199	0xbe4edb80	-0.2020092
200	0xbe3c96aa	-0.18416849
201	0xbddec3a2	-0.10877158
202	0xbe2358a0	-0.15951777
203	0x3ef4f09e	0.47839826
204	0x3d3b5846	0.04573848
205	0x3f1514c8	0.58234835
206	0x3dc64542	0.09681179
207	0xbe0dc83b	-0.13845913
208	0xbe520ee8	-0.20513499
209	0xbf0a5956	-0.54042566
210	0xbf05dc8e	-0.52289665
211	0xbeb0dce3	-0.34543523
212	0x3dd4e9d2	0.1039616
213	0x3e10815f	0.14111851
214	0x3ed1fcf9	0.41013315
215	0x3dd5cbd8	0.10439271
216	0x3e3a3124	0.18182808
217	0xbdd5f2d6	-0.10446708
218	0x3d0e27c4	0.034705892
219	0x3b58504b	0.0033006843
220	0xbe8c18e8	-0.27362752
221	0x3bf36890	0.0074282363
222	0xbdf18d55	-0.11794535
223	0xbef82a87	-0.48469946
224	0xbe27922d	-0.16364355
225	0x3d82a947	0.06379943
226	0xbe63b83e	-0.22238252
227	0x3ee4d895	0.4469649
228	0xbe0b4efc	-0.13604349
229	0x3f2a724c	0.66580653
230	0xbef1e1e7	-0.47242662
231	0x3c3e7c9b	0.011626388
232	0xbe59d1b7	-0.21271406
233	0xbedba1fe	-0.42897028
234	0xbf088565	-0.53328544
235	0xbe8cc4c1	-0.2749386
236	0xbe836540	-0.25663185
237	0x3b1a2089	0.0023517928
238	0x3f08eb36	0.53483903
239	0x3e86033b	0.2617434
240	0x3e791096	0.24322733
241	0x3ec41b9e	0.3830232
242	0xbe1569c0	-0.14591122
243	0xbd3fc619	-0.04681978
244	0xbd70b10d	-0.0587626
245	0xbf03e25a	-0.5151726
246	0x3e8f9b69	0.28048256
247	0xbeafda5b	-0.3434628
248	0xbe81706b	-0.2528108
249	0x3de178e4	0.11009386
250	0xbe0d0268	-0.13770449
251	0x3ec566a2	0.38554865
252	0xbedf0ed3	-0.43565997
253	0x3ee5a765	0.44854274
254	0xbe031b1d	-0.12803312
255	0x3cea8010	0.028625518

net.0.bias f4 [64]
0	0x3e541389	0.20710577
1	0x3e93d0ae	0.28870147
2	0x3e1fdeb1	0.15612294
3	0x3e926378	0.28591514
4	0xbebb10d4	-0.36536276
5	0xbdc83b69	-0.097769566
6	0xbdffda78	-0.124928415
7	0xbe1492d0	-0.1450913
8	0x3e94d369	0.29067543
9	0xbec18d28	-0.37803006
10	0xbab5ab82	-0.0013860317
11	0x3eb9b9e7	0.36274645
12	0xbe839853	-0.25702152
13	0x3e2458ef	0.1604955
14	0xbf1b8936	-0.6075624
15	0x3d9a4151	0.07531989
16	0xbe955ccb	-0.29172358
17	0x3d1c8468	0.03821221
18	0x3de96c55	0.11397616
19	0x3d1b8c09	0.037975345
20	0xbc86727b	-0.01641201
21	0xbe4e371b	-0.20138209
22	0xbe949f46	-0.29027766
23	0x3d917a5f	0.071034186
24	0x3e7506ce	0.23928377
25	0xbec3bcaa	-0.38229877
26	0xbe1fdf7d	-0.15612598
27	0x3e393f6b	0.18090598
28	0x3e23a254	0.15979892
29	0x3d90fb51	0.07079185
30	0x3e943d26	0.28952903
31	0x3de1ccf2	0.11025418
32	0xbe26e99f	-0.16300057
33	0xbebaf315	-0.36513582
34	0xbeb9e775	-0.363094
35	0xbebf3317	-0.37343666
36	0x3ded296e	0.11580168
37	0x3ec0f857	0.37689468
38	0x3edef1f5	0.43543974
39	0x3e83528f	0.25648925
40	0x3ce576ee	0.028010812
41	0x3ea86804	0.32891858
42	0x3e19d99f	0.15024422
43	0xbedeb0d1	-0.43494275
44	0xbe250dfa	-0.16118613
45	0xbeb02d09	-0.3440936
46	0x3ebb0e22	0.3653422
47	0xbaeee198	-0.0018225191
48	0x3e8bd416	0.27310246
49	0xbe59ff1e	-0.21288726
50	0x3e8e08ab	0.27740988
51	0x3d7dfa71	0.062006418
52	0xbe2a775e	-0.16647097
53	0xbc36561b	-0.011128928
54	0x3e49207f	0.19641303
55	0xbd659204	-0.056047454
56	0x3e024ace	0.12723848
57	0x3d8770ba	0.06613298
58	0xbd7169cc	-0.058938786
59	0xbe723833	-0.23654251
60	0xbe57873f	-0.21047686
61	0x3e7f6dfe	0.24944302
62	0x3e691dc1	0.22765256
63	0xbe1ed401	-0.1551056

net.2.weight f4 [64, 64]
0	0xbdd808b0	-0.10548532
1	0x3cd8f88e	0.026485708
2	0xbea53339	-0.32265642
3	0xbe05afe5	-0.1305538
4	0x3d418454	0.04724534
5	0xbe388c31	-0.18022229
6	0xbd866028	-0.06561309
7	0xbda07b0f	-0.078359716
8	0xbda0bf90	-0.07849038
9	0xbd98cea7	-0.07461291
10	0xbdf9cafb	-0.121969186
11	0x3e1d9258	0.15387857
12	0x3c7d0eba	0.015445406
13	0x3e9c4f11	0.30529073
14	0xbe86a219	-0.26295546
15	0xbcfd540d	-0.030923868
16	0xbd6ec8f6	-0.05829712
17	0xbe35397c	-0.1769771
18	0x3ccaeea3	0.024771994
19	0xbddd6337	-0.10809939
20	0x3d38fcf5	0.045163114
21	0x3df4f6c8	0.11961132
22	0x3d94aeae	0.0725988
23	0xbd447b71	-0.047969285
24	0xbd2f25f3	-0.0427608
25	0xbe47fb2e	-0.19529411
26	0xbe426383	-0.18983273
27	0x3eaf2b2d	0.34212628
28	0xbec2e23d	-0.3806323
29	0xbd93a54b	-0.072092615
30	0x3db95b11	0.09050573
31	0xbe1657cd	-0.14681931
32	0xbe063b29	-0.13108505
33	0x3e20fc08	0.15721142
34	0xbeb3b0e0	-0.35095882
35	0x3e3ffc65	0.18748625
36	0xbe4d9689	-0.20076956
37	0x3e21ec04	0.15812689
38	0xbe1cd7f7	-0.15316759
39	0x3ea4ad52	0.32163483
40	0xbe259d1c	-0.16173214
41	0x3e788c51	0.24272276
42	0xbe5c1e33	-0.21495895
43	0xbdea2cb3	-0.11434307
44	0xbdd1fed3	-0.10253682
45	0xbbff9d49	-0.0078007323
46	0xbd9cd2d3	-0.07657399
47	0x3e457ed1	0.19286658
48	0x3e30ea88	0.17276967
49	0x3db191dc	0.086703986
50	0xbc9eadf1	-0.019370051
51	0x3d91b917	0.07115381
52	0x3e216ac3	0.15763383
53	0xbf13a7a3	-0.5767767
54	0x3e98f6e9	0.29875877
55	0xbdbed27d	-0.09317491
56	0xbcfe69ed	-0.031056369
57	0xbe3dc196	-0.18530878
58	0xbeaa1c35	-0.33224645
59	0xbbfe056e	-0.007752112
60	0xbba78149	-0.0051118475
61	0x3c9183ac	0.017762981
62	0x3d969c91	0.073540814
63	0xbefa5dd2	-0.48899704
64	0xbe0d7acc	-0.13816375
65	0xbe61d5ef	-0.22054265
66	0xbdc88b1c	-0.09792158
67	0xbd867372	-0.06564988
68	0x3d8d0986	0.06886582
69	0xbe15a44b	-0.14613454
70	0x3f008e6e	0.5021733
71	0xbe7c4918	-0.24637258
72	0x3dcbbced	0.09948144
73	0x3dc2290d	0.09480486
74	0x3de62953	0.11238351
75	0xbd816d76	-0.06319706
76	0x3d114a41	0.035471205
77	0x3e354c97	0.17704998
78	0xbdb5cd0f	-0.088770024
79	0xbc91d70f	-0.017802743
80	0x3dedacd1	0.11605228
81	0xbc68d72d	-0.014211458
82	0x3d4892e2	0.048968203
83	0x3d4217d7	0.047386017
84	0xbdf370fc	-0.118867844
85	0xbd7525ff	-0.05985069
86	0x3d890fb9	0.06692452
87	0xbda945f4	-0.082652956
88	0x3db451a5	0.08804635
89	0xbd8fff9f	-0.07031178
90	0x3e9fd175	0.3121449
91	0xbdf6d7ca	-0.12052877
92	0xbe608291	-0.21924807
93	0xbd753bda	-0.059871532
94	0xbdc5ea01	-0.09663773
95	0x3c0486d6	0.008088788
96	0xbe0830a3	-0.13299803
97	0x3d1bb1c7	0.03801134
98	0xbde5db02	-0.11223413
99	0x3ea9b60e	0.3314671
100	0xbe078ca3	-0.13237242
101	0xbd388ad1	-0.04505426
102	0xbe5c6a2b	-0.21524875
103	0x3fc438f1	1.5329877
104	0xbd6d6d8f	-0.05796581
105	0xbe9c86de	-0.30571645
106	0x3ee759a2	0.45185572
107	0x3e05f8ac	0.13083142
108	0x3e191368	0.14948809
109	0x3d07e698	0.033178896
110	0x3d62f1b7	0.0554063
111	0xbcc9578a	-0.024577875
112	0x3e36a132	0.17834929
113	0x3d3834d1	0.044972245
114	0xbdd93844	-0.10606435
115	0x3e3dc1ba	0.18530932
116	0xbd8076cc	-0.06272659
117	0xbd5da172	-0.054109044
118	0x3d7b2dc0	0.061322927
119	0xbe5b537d	-0.21418567
120	0xbdc26599	-0.094920345
121	0xbdf5bcf6	-0.11998932
122	0xbd3bc325	-0.0458404
123	0x3cfa7ead	0.030577982
124	0xbda07319	-0.07834453
125	0xbe83b238	-0.25721908
126	0xbc818544	-0.015810616
127	0xbe6cfe28	-0.23143828
128	0x3e176df3	0.14788036
129	0xbde8ea24	-0.11372784
130	0xbd8ca841	-0.068680294
131	0x3d3cff3e	0.046141855
132	0x3c6f264c	0.014596533
133	0xbbd73a66	-0.006568241
134	0x3e62252d	0.22084494
135	0x3d80dc4c	0.06292018
136	0x3d4910c3	0.04908825
137	0x3dda2e13	0.10653319
138	0x3d31522d	0.04329126
139	0x3d8f8ec7	0.070096545
140	0xbe539ff1	-0.20666482
141	0x3d8a6e00	0.06759262
142	0xbe4c8d2f	-0.19975732
143	0xbe4e2630	-0.20131755
144	0xbe3ed7ae	-0.18636963
145	0x3e11201f	0.1417241
146	0x3ce116db	0.027476719
147	0x3e6d7ab7	0.23191343
148	0x3db38e74	0.08767405
149	0xbd3da806	-0.046302818
150	0x3dafd4a0	0.08585477
151	0x3d4cf366	0.05003681
152	0x3c562bca	0.013071964
153	0xbd512a4f	-0.05106574
154	0x3e4a894c	0.19778937
155	0x3da3614b	0.079775415
156	0x3de6aa48	0.11262947
157	0xbd082975	-0.03324266
158	0xbe3a4cf1	-0.18193413
159	0x3d2e5680	0.04256296
160	0xbd8f62aa	-0.070012406
161	0xbe803f24	-0.25048172
162	0x3d876ec8	0.06612927
163	0xbd0897cb	-0.033347886
164	0x3e182d9c	0.14861149
165	0xbd4f0530	-0.050542057
166	0xbe0e0441	-0.1386881
167	0x3e63d7f6	0.22250351
168	0x3d84edb0	0.06490648
169	0x3d52d1bd	0.051469553
170	0x3eec192f	0.46112964
171	0x3d0a5529	0.03377262
172	0x3ca308cd	0.019901657
173	0x3c2f0765	0.010682915
174	0x3e5f6cf1	0.21818902
175	0xbe4eccb2	-0.20195273
176	0x3e4f5ccf	0.20250247
177	0xbe58836c	-0.21143883
178	0xbd9435ed	-0.07236848
179	0x3e792f56	0.24334463
180	0xbd805ba9	-0.06267483
181	0x3e7e8db0	0.24858737
182	0x3d7fab19	0.06241903
183	0x3dd8ca1a	0.10585423
184	0xbccd0bae	-0.025029983
185	0x3cac57ef	0.021038024
186	0xbd2db036	-0.042404376
187	0xbe57a158	-0.21057642
188	0xbe3f6a51	-0.186929
189	0xbdd97bcd	-0.10619316
190	0xbd99cb08	-0.07509428
191	0x3d35bf95	0.04437216
192	0x3d8b2771	0.06794632
193	0xbe002a8d	-0.12516232
194	0xbe8fd55d	-0.2809247
195	0xbe4e7c57	-0.2016462
196	0x3d962c1a	0.073326305
197	0xbdd2ff64	-0.10302618
198	0x3e989d5c	0.29807556
199	0xbd46f17f	-0.048570152
200	0xbe4e7639	-0.20162286
201	0x3e7772f7	0.2416495
202	0xbdcd0043	-0.100098155
203	0xbd54c540	-0.051945925
204	0x3e2b7e18	0.1674732
205	0x3d4ac039	0.049499724
206	0xbe7b1e0a	-0.24523178
207	0xbbd7c6f6	-0.0065849973
208	0xbe71a743	-0.23598962
209	0xbe15f012	-0.14642361
210	0x3d643a1b	0.055719476
211	0x3dd2f47f	0.1030054
212	0xbd821870	-0.06352317
213	0x3ce4d8ed	0.02793547
214	0xbe1a2f57	-0.15057121
215	0x3e5ff5c7	0.218711
216	0x3b54654d	0.0032409013
217	0xbc961453	-0.018320238
218	0x3e84bc44	0.25924885
219	0xbe97ffbd	-0.296873
220	0x3dabb1fc	0.08383557
221	0xbe5f3ef9	-0.21801366
222	0x3d5a0f7f	0.053237434
223	0x3e814417	0.2524726
224	0x3cc3a8a0	0.023884118
225	0xbd2e1f79	-0.042510483
226	0x3e7a2959	0.24429835
227	0x3c83c3b4	0.01608453
228	0xbd878264	-0.06616667
229	0xbde7747e	-0.11301516
230	0x3e965344	0.29360402
231	0x3e422f49	0.1896335
232	0x3d579c88	0.052639514
233	0xbeb58283	-0.35451135
234	0x3f16f6f9	0.589706
235	0xbe4983c9	-0.19679178
236	0x3e98f26a	0.29872447
237	0xbea6c66b	-0.32573256
238	0x3e1fad88	0.1559354
239	0xbdaa592d	-0.0831779
240	0x3dcc239d	0.0996773
241	0x3cd6e245	0.02623094
242	0xbcbd0e5c	-0.023078136
243	0x3daef980	0.08543682
244	0xbd80c6b6	-0.06287901
245	0x3e82f825	0.25579944
246	0xbdd3af96	-0.10336225
247	0x3e2d8816	0.16946444
248	0xbde45471	-0.111489184
249	0x3e2c2520	0.16811037
250	0x3ee65d39	0.44992998
251	0xbdd274c6	-0.10276179
252	0xbd875a3b	-0.06609007
253	0x3d975ca6	0.07390718
254	0xbe15b197	-0.14618526
255	0xbe119871	-0.14218308

net.2.bias f4 [64]
0	0x3df22cd6	0.11824958
1	0xbdd09495	-0.1018459
2	0xbd0b6c5c	-0.034038886
3	0x3d64d39a	0.05586586
4	0xbd07cd77	-0.03315493
5	0xbdbc597a	-0.09196754
6	0x3b491c3c	0.0030686995
7	0x3e385aab	0.18003337
8	0x3e297cfd	0.16551585
9	0xbd916927	-0.07100134
10	0x3d1abfe2	0.03778065
11	0x3d75064e	0.059820466
12	0xbdd4ab49	-0.103842326
13	0x3dbce5ae	0.092234954
14	0xbc3b9631	-0.011449383
15	0xbdca7e8a	-0.09887417
16	0x3dc47494	0.09592548
17	0x3dc3a8dd	0.095536925
18	0xbce4fbb8	-0.02795206
19	0xbcdc91fa	-0.026925076
20	0xbdc50c6a	-0.096215084
21	0x3cadfbaa	0.021238167
22	0xbe0f0127	-0.13965283
23	0x3d00c5e0	0.03143871
24	0x3d61170f	0.05495363
25	0x3e6a5766	0.22884902
26	0xbceaf7f1	-0.02868268
27	0x3d344a26	0.044016026
28	0xbd674c28	-0.056469113
29	0x3d47aeb1	0.048750583
30	0x3d756187	0.059907462
31	0xbd386807	-0.045021083
32	0xbd88344b	-0.06650599
33	0xbd16c568	-0.036809355
34	0x3d917050	0.071015
35	0x3d637e3c	0.05554031
36	0x3dce33a9	0.10068447
37	0xbcf6a74a	-0.030109067
38	0xbd217233	-0.03941555
39	0x3d0908b1	0.033455554
40	0x3dfdc3e2	0.12390877
41	0x3d1dab83	0.038493644
42	0x3c1561c0	0.009117544
43	0xbcd035af	-0.025416223
44	0xbe0e2818	-0.13882482
45	0x3e33980b	0.17538469
46	0xbda68dbc	-0.081325024
47	0xbddd8e82	-0.10818197
48	0xbdc88b02	-0.09792139
49	0xbc9e9b8d	-0.019361282
50	0xbcf6942c	-0.03009995
51	0xbdfea555	-0.12433878
52	0x3df245f2	0.11829747
53	0xba635847	-0.0008672517
54	0x3c9b87d1	0.01898566
55	0x3dd214d1	0.10257877
56	0x3c81451a	0.01578002
57	0x3d5a0429	0.053226624
58	0xbe027448	-0.1273967
59	0x3e22fca1	0.15916683
60	0x3c87934f	0.016549734
61	0xbc94eaa2	-0.018178288
62	0xbe24a7ea	-0.16079679
63	0xbe2a6a5e	-0.16642138

net.4.weight f4 [1, 64]
0	0x3ed75c68	0.42062688
1	0xbf6aa483	-0.91657275
2	0xbe8813f8	-0.26577735
3	0xbf4c642c	-0.7984035
4	0xbf210438	-0.6289706
5	0xbf659fe8	-0.8969712
6	0xbf2d3361	-0.67656523
7	0x3f45d30f	0.77275175
8	0x3f0fb3dd	0.56133825
9	0xbf071623	-0.5276815
10	0xbf1e218a	-0.61769927
11	0x3fb0e59b	1.382007
12	0xbf41494d	-0.75502473
13	0x3ecbd129	0.39808014
14	0x3f15053b	0.58211106
15	0xbf26dc94	-0.65180326
16	0x3f3ebf04	0.74510217
17	0x3ed14a83	0.4087716
18	0x3ec1b743	0.3783513
19	0x3f603bbd	0.87591153
20	0x3ef8edff	0.48619077
21	0x3ee661a0	0.44996357
22	0xbf385346	-0.72002065
23	0x3f0bb03d	0.54565793
24	0xbf4419cb	-0.76601857
25	0x3ef2dabf	0.47432515
26	0xbfb23e5c	-1.392528
27	0xbf1cf2c1	-0.61307913
28	0x3fb42a5c	1.4075427
29	0x3f026749	0.5093885
30	0xbf5e05de	-0.867277
31	0x3e9c1218	0.30482554
32	0xbf2bd87c	-0.67127204
33	0x3ecc77a8	0.3993504
34	0x3f47bbe5	0.7802108
35	0xbf28d3ca	-0.65948164
36	0xbf525dcf	-0.8217439
37	0x3ec3c6f4	0.38237727
38	0x3ef2213c	0.4729098
39	0x3f093555	0.53597003
40	0x3edeb463	0.43497
41	0xbf59f581	-0.85140234
42	0x3fa24df6	1.2680042
43	0x3e3030f2	0.17206171
44	0xbeeab5c6	-0.45841807
45	0x3ea482c3	0.32131013
46	0xbebe100e	-0.37121624
47	0xbf4b8474	-0.7949898
48	0x3ed66758	0.4187572
49	0x3f18b57d	0.5965193
50	0xbe2c090d	-0.16800328
51	0x3f49eb18	0.7887435
52	0x3fa6f881	1.3044587
53	0x3f3dea97	0.7418608
54	0x3faa9aa1	1.3328439
55	0x3e858cf4	0.260841
56	0xbee6a1b1	-0.45045236
57	0xbea4d328	-0.3219235
58	0xbf0627bd	-0.52404386
59	0xbf256532	-0.64607537
60	0xbf8a0c75	-1.0785052
61	0xbf5a1d13	-0.85200614
62	0xbf0d9bfb	-0.5531613
63	0x3f873c57	1.0565289
