two_agent_swap/magail_models_gpu/D2.pth (torch, 20950 bytes, 5 tensors)

net.0.weight f4 [64, 6]
0.06739582 0.1657701 0.31229165 0.25236967 -0.34535116 -0.69256604 -0.12048803 0.28369284
-0.24752894 -0.10230798 0.09362991 -0.21253891 0.2864015 0.3909182 0.24478249 0.29811794
-0.21813394 -0.43182173 -0.47134653 -0.13448028 0.2405448 0.0036510394 0.5425213 0.32521784
-0.3939779 0.32915473 0.05340168 -0.12312346 0.294643 -0.2822953 -0.46886623 -0.2618673
0.2751006 0.015697839 0.4684323 0.09058216 0.46829903 -0.24595639 0.25406864 0.013643091
-0.46901724 0.25234127 0.14049329 -0.6000123 -0.34207124 0.008029952 0.16530983 0.5753209
-0.10734319 -0.71439576 0.06621134 0.04621368 -0.027681436 0.5103879 0.028790688 0.5094361
0.27197072 0.028889572 0.364934 0.0007379131 -0.5042361 0.2348787 0.058205564 -0.10094324
0.47083753 0.08779525 -0.36045384 0.40456548 -0.08918893 -0.026395159 0.19054082 -0.5016077
-0.32254505 0.226054 -0.038344145 0.06847246 0.4585683 -0.08637598 0.28097686 0.47154823
-0.1351577 0.058448885 -0.37194 -0.44410044 0.12776962 0.53867924 0.25955912 -0.10061076
0.0043106466 -0.025302218 -0.389348 -0.221282 0.21579997 -0.037363045 0.3942079 0.21614252
-0.14042243 0.12812752 -0.090876415 0.2782108 0.07238093 -0.282743 0.04447124 -0.18621412
-0.33146346 -0.31462586 -0.08235586 0.6078541 -0.059015293 0.52791846 -0.09371625 0.20296486
-0.043583922 -0.48589787 0.24526118 0.24139857 -0.3577574 -0.041685306 -0.052557234 -0.07996035
0.4527279 -0.25781032 0.3150246 0.11805386 -0.5179714 -0.22624946 0.057412613 -0.46562925
0.37448135 0.015113914 0.14505948 0.12227762 0.0073612668 -0.50741 -0.028374318 -0.14007813
-0.044767044 0.39940995 -0.16201015 0.53827965 -0.44121107 -0.14759019 0.2801753 -0.46568078
0.34864038 0.25735748 0.014491972 0.25894216 -0.18845586 -0.41391742 -0.05094409 0.39655712
0.26098868 0.24100342 -0.12952614 -0.1567685 0.19623835 -0.39490196 -0.09923658 -0.16995631
0.010607313 0.6457261 0.3668768 -0.52181274 0.12121466 0.32301787 -0.10855442 0.4127133
-0.49643245 0.41697764 -0.066773854 0.21963535 0.3902496 -0.47791985 -0.24944386 -0.551705
-0.30037773 -0.306713 0.195251 0.54310876 -0.14400645 0.052727006 -0.045568824 0.008801431
0.53859884 0.39282805 -0.21268868 0.41448435 -0.20208065 -0.35660887 0.14559676 -0.12828965
0.08897545 0.10430857 0.34596375 0.06770727 -0.42334676 -0.5822496 -0.2837408 0.31582367
0.37689543 -0.13919944 0.20372267 -0.28373036 0.16993783 -0.10215333 -0.032389443 0.16540386
-0.19395016 0.49685526 0.044320032 -0.7039124 0.17624605 0.206866 0.37887427 0.18823406
0.027973538 0.46594214 -0.12879913 0.013289095 0.0485649 -0.51774544 -0.22929361 -0.12529331
-0.14491686 -0.21487871 0.34249315 0.07434341 0.24920419 -0.20466909 0.114466876 -0.097593166
0.17938243 -0.41589388 -0.12375579 -0.22851622 -0.23087966 0.12096414 0.0031214366 0.4917165
-0.19361925 -0.35566288 -0.26504454 0.09693646 0.24065012 0.40267602 -0.17467944 -0.0031345696
0.032680526 0.06856447 0.4312562 -0.024406757 -0.4364017 -0.5936213 0.10367615 0.32339644
00000000: d206 8a3d a3bf 293e b1e4 9f3e 9936 813e
00000010: ded1 b0be 024c 31bf 6ec2 f6bd 3040 913e
00000020: 3a78 7dbe d986 d1bd 0ac1 bf3d cda3 59be
00000030: 38a3 923e 6e26 c83e 43a8 7a3e eaa2 983e
00000040: 815e 5fbe bd17 ddbe 5554 f1be 33b5 09be
00000050: 6051 763e 4746 6f3b ade2 0a3f f482 a63e
00000060: 79b7 c9be f886 a83e b8bb 5a3d 2728 fcbd
00000070: 73db 963e 0289 90be 3c0f f0be 7913 86be
00000080: fcd9 8c3e c198 803c 5cd6 ef3e 2483 b93d
00000090: e4c4 ef3e fedb 7bbe 4915 823e 4587 5f3c
000000a0: 0723 f0be e032 813e 79dd 0f3e 689a 19bf
000000b0: f623 afbe 0f90 033c fb46 293e 3b48 133f
000000c0: bfd6 dbbd a4e2 36bf d099 873d 8e4a 3d3d
000000d0: 2ec4 e2bc c8a8 023f 73da eb3c 676a 023f
000000e0: bf3f 8b3e d3a9 ec3c a1d8 ba3e 8370 413a
000000f0: 9e15 01bf 0b84 703e f568 6e3d 54bb cebd
00000100: 9e11 f13e ffcd b33d 688d b8be 3523 cf3e
00000110: b0a8 b6bd a93a d8bc 221d 433e 5d69 00bf
00000120: a024 a5be b37a 673e c00e 1dbd 4a3b 8c3d
00000130: 77c9 ea3e e4e5 b0bd 33dc 8f3e c56e f13e
00000140: c866 0abe 1968 6f3d eb6e bebe 2261 e3be
00000150: 0ad6 023e e2e6 093f efe4 843e 040d cebd
00000160: 5340 8d3b 9946 cfbc 9f58 c7be c097 62be
00000170: abfa 5c3e fe09 19bd 9ed5 c93e 7754 5d3e
00000180: e6ca 0fbe dc33 033e 6a1d babd a571 8e3e
00000190: 743c 943d b1c3 90be 7a27 363d eaae 3ebe
000001a0: 94b5 a9be a416 a1be 30aa a8bd 549c 1b3f
000001b0: 05ba 71bd aa25 073f 4eee bfbd 05d6 4f3e
000001c0: 0e85 32bd 9bc7 f8be bf25 7b3e 3031 773e
000001d0: fa2b b7be 36be 2abd 4146 57bd 41c2 a3bd
000001e0: f4cb e73e b7ff 83be e84a a13e 39c6 f13d
000001f0: c699 04bf f0ad 67be 7d29 6b3d f566 eebe
00000200: 05bc bf3e 5aa0 773c 798a 143e b06c fa3d
00000210: c836 f13b 9fe5 01bf 4271 e8bc a470 0fbe
00000220: a65d 37bd 767f cc3e fde5 25be b2cc 093f
00000230: 6be6 e1be e221 17be 2373 8f3e b66d eebe
00000240: fe80 b23e 5cc4 833e bc6f 6d3c 1194 843e
00000250: 93fa 40be fcec d3be c0aa 50bd 8909 cb3e
00000260: 4fa0 853e 9ac9 763e 80a2 04be ec87 20be
00000270: b5f2 483e 9730 cabe 8c3c cbbd 0709 2ebe
00000280: 4cca 2d3c 4e4e 253f 47d7 bb3e 8595 05bf
00000290: 643f f83d 9962 a53e c851 debd 284f d33e
000002a0: 652c febe 187e d53e bbc0 88bd 17e8 603e
000002b0: ccce c73e e9b1 f4be 366e 7fbe 8a3c 0dbf
000002c0: 1ccb 99be 7d09 9dbe e1ef 473e 2d09 0b3f
000002d0: 6d76 13be 46f8 573d 60a6 3abd e133 103c
000002e0: 9de1 093f c220 c93e 10cb 59be 4b37 d43e
000002f0: 3bee 4ebe 7095 b6be 5117 153e 5d5e 03be
00000300: c338 b63d bb9f d53d 2922 b13e 1caa 8a3d
00000310: e8c0 d8be 4f0e 15bf 7946 91be a4b3 a13e
00000320: 70f8 c03e 4c8a 0ebe ad9c 503e 1b45 91be
00000330: 2f04 2e3e c435 d1bd cbaa 04bd a15f 293e
00000340: df9a 46be d063 fe3e ec88 353d 9a33 34bf
00000350: d879 343e aed4 533e cffb c13e 6ec0 403e
00000360: c328 e53c f88f ee3e ebe3 03be 81ba 593c
00000370: fdeb 463d f78a 04bf f2cb 6abe e44c 00be
00000380: 1665 14be 2a09 5cbe 435b af3e 5c41 983d
00000390: 622f 7f3e c694 51be 9c6d ea3d edde c7bd
000003a0: 07b0 373e 0bf0 d4be ad73 fdbd 2800 6abe
000003b0: b86b 6cbe 0cbc f73d 0491 4c3b 44c2 fb3e
000003c0: 2044 46be 7219 b6be ebb3 87be 9f86 c63d
000003d0: fc6c 763e 8d2b ce3e 2bdf 32be 5a6d 4dbb
000003e0: 04dc 053d 876b 8c3d 9dcd dc3e aef0 c7bc
000003f0: 0b70 dfbe 91f7 17bf 2954 d43d 3894 a53e

net.0.bias f4 [64]
0.07937773 -0.25832593 -0.2143663 -0.36222672 0.26839292 0.3565536 0.26147446 -0.100686714
-0.09705328 0.23656796 0.28535664 0.32459158 0.15719725 -0.13675343 -0.23809272 0.32312202
-0.23657168 -0.34458518 -0.041837666 -0.08252795 0.20878626 -0.34544498 -0.08083249 -0.25355792
0.24592184 0.11478595 -0.121949896 -0.047122244 0.266541 0.23140252 -0.48822546 -0.18426248
0.04801693 0.19661479 -0.15839642 0.15820879 -0.007824486 -0.21994452 -0.41432437 -0.046239506
0.0047689546 0.06626467 0.18093716 0.20340516 0.33961055 -0.2805308 -0.14503488 -0.3143532
0.2426061 -0.27714074 -0.17741476 -0.3428809 -0.015715955 -0.17984846 0.29769456 -0.36443722
0.12477939 -0.14227578 -0.0738117 -0.28890145 0.17141348 0.25793266 0.22256015 0.030443765
00000000: cb90 a23d 4c43 84be d782 5bbe c875 b9be
00000010: cc6a 893e 328e b63e fbdf 853e d634 cebd
00000020: dfc3 c6bd df3e 723e 441a 923e de30 a63e
00000030: 51f8 203e 1709 0cbe 94ce 73be 4070 a53e
00000040: d93f 72be 786d b0be f95d 2bbd 6a04 a9bd
00000050: 11cc 553e 2ade b0be 818b a5bd 58d2 81be
00000060: efd2 7b3e e514 eb3d dec0 f9bd 4103 41bd
00000070: 1078 883e c8f4 6c3e b0f8 f9be 4eaf 3cbe
00000080: 67ad 443d 6355 493e ac32 22be 7c01 223e
00000090: 4632 00bc 2339 61be 5322 d4be a365 3dbd
000000a0: e444 9c3b c5b5 873d 9747 393e 7149 503e
000000b0: 6fe1 ad3e bca1 8fbe 0684 14be e7f2 a0be
000000c0: bc6d 783e 64e5 8dbe 37ac 35be 168e afbe
000000d0: bfbe 80bc 322a 38be 6c6b 983e 8497 babe
000000e0: 568c ff3d beb0 11be 972a 97bd e4ea 93be
000000f0: 0487 2f3e c00f 843e cfe6 633e 3465 f93c

net.2.weight f4 [64, 64]
-0.08724516 0.05925865 0.27233714 0.05642523 0.09465714 -0.008040654 -0.33572432 0.056883678
-0.35946366 0.12895373 -0.031898715 0.15680423 -0.06896019 -0.6673607 -0.055888727 0.1472362
0.19001889 -0.021032536 -0.0692571 0.054895274 -0.07487537 -0.028260775 -0.20002905 0.1606032
0.18850343 -0.14121608 0.030666899 -0.19046949 0.18068162 -0.091752455 0.08030634 -0.0335738
-0.13471751 0.28718218 -0.119504265 -0.12542453 -0.023206033 -0.06206106 -0.024996474 -0.017005844
0.087703966 0.15932184 -0.19612561 -0.067485064 0.14802085 -0.21620195 -0.14770806 -0.13273631
0.11478113 0.20427892 -0.104365416 0.049353197 -0.10011319 -0.0791244 -0.13092586 0.15735541
0.25808612 0.14132303 0.2565141 0.111663505 -0.06375091 0.12985784 0.16376996 0.040055558
-0.06136548 0.383793 -0.31939074 0.1696621 -0.18972638 0.47019508 0.4053371 0.11496151
0.15580429 -0.18399939 -0.0057441047 -0.21289262 -0.00648578 0.021352258 -0.019665832 0.15206487
-0.077604525 0.22771846 -0.33398175 -0.055369858 -0.0030406013 -0.063333586 0.077779725 -0.012449445
-0.12565748 -0.09339596 0.16115515 0.4382577 -0.13249347 0.22743101 0.06188954 0.15855908
0.03936732 0.14976934 -0.0079922695 0.054519966 -0.040948372 0.1293923 -0.07495517 0.0048754863
0.07705244 0.17771865 0.20979463 -0.13559148 0.009194683 0.17708914 -0.024622247 0.14429542
0.20717815 -0.038535688 0.8891898 0.12993139 0.16506323 -0.030019512 0.014974351 0.22385363
0.007936687 0.075822994 0.07350751 0.056468334 0.29232168 -0.0650195 -0.16925478 0.051864218
0.10096017 0.041316655 0.40663722 -0.02211932 0.14372538 -0.16126496 -1.25269 -1.0704364
-0.5961786 0.13027088 0.16876233 0.2477522 0.0811874 0.59340054 0.37729105 -0.6232037
0.31788057 -0.2849281 0.3809165 0.19673511 -0.068874665 -0.20292601 -0.073651515 0.61784315
0.15743938 0.32325384 -0.56512713 -0.42145318 0.20637459 -0.19776946 -0.069997326 0.05472601
0.27605006 0.3270838 -0.022465428 -0.044240244 0.5025443 0.19713798 0.24268633 -0.12463147
-0.44119993 -0.1694067 -0.37720954 0.3379805 -0.4533497 -0.02673453 0.36801115 0.24815871
-0.2190483 -0.8392096 -1.021212 -0.03373692 0.046640124 -0.23810333 0.17171028 0.5169848
-0.43825942 -0.08844074 0.15379293 0.19374171 -0.55546826 -0.107804865 0.23497877 0.4216359
0.18283397 0.2601512 -0.18300602 -0.34055674 -0.057181146 0.15237705 -0.41483745 -0.34077942
-0.23622742 0.18404149 0.1584165 -0.08376913 0.1415738 0.028491158 0.04308715 -0.082456306
0.11970493 -0.15156434 0.1331288 -0.061200585 -0.38102567 -0.013406459 -0.23757152 0.07762431
-0.097753026 -0.11812775 0.09034788 -0.48406908 0.16839135 0.08097788 0.07665441 0.12562498
0.1092352 0.36589503 -0.15467511 -0.12161419 -0.49306983 -0.078997046 -0.04780714 0.02186911
-0.0113207605 -0.06624472 -0.15314588 0.12878852 -0.103818454 0.0664633 -0.14961848 0.18900228
0.22107445 0.24637055 -0.93259466 -0.09404284 0.11545779 -0.19120608 -0.04522493 -0.09880913
0.1219844 0.031751342 0.00019694556 -0.07886519 -0.27266222 0.09737831 -0.36075702 -0.24185354
00000000: 97ad b2bd 33b9 723d c66f 8b3e 241e 673d
00000010: 9adb c13d f2bc 03bc 0fe4 abbe dcfe 683d
00000020: 9f0b b8be 720c 043e 3aa8 02bd 4a91 203e
00000030: 003b 8dbd 27d8 2abf 94eb 64bd 16c5 163e
00000040: 5094 423e 6d4c acbc abd6 8dbd ded9 603d
00000050: 4258 99bd 2483 e7bc 6ad4 4cbe 2a75 243e
00000060: 0b07 413e f39a 10be 2639 fb3c 6f0a 43be
00000070: 9a04 393e b6e8 bbbd a677 a43d ae84 09bd
00000080: 63f3 09be 8b09 933e a7be f4bd 4a6f 00be
00000090: 941a bebc bd33 7ebd 68c5 ccbc d74f 8bbc
000000a0: 239e b33d 4425 233e 27d5 48be 9c35 8abd
000000b0: c792 173e 0b64 5dbe c840 17be 07ec 07be
000000c0: 5e12 eb3d 7e2e 513e 89bd d5bd 9426 4a3d
000000d0: 2508 cdbd f90b a2bd 6e11 06be c721 213e
000000e0: dd23 843e fcb6 103e d155 833e d6af e43d
000000f0: d68f 82bd 74f9 043e 50b3 273e 4c11 243d
00000100: 5f5a 7bbd 8480 c43e 2f87 a3be e7bb 2d3e
00000110: a247 42be 69bd f03e 5888 cf3e f170 eb3d
00000120: 298b 1f3e 566a 3cbe 0b39 bcbb 8600 5abe
00000130: aa86 d4bb eeea ae3c 3d1a a1bc e5b6 1b3e
00000140: 1fef 9ebd 072f 693e a8ff aabe 81cb 62bd
00000150: d344 47bb 0ab5 81bd fa4a 9f3d c2f8 4bbc
00000160: 5bac 00be 6246 bfbd db05 253e 5063 e03e
00000170: 5eac 07be ade3 683e e37f 7d3d 505d 223e
00000180: a03f 213d 225d 193e 02f2 02bc 5450 5f3d
00000190: 7bb9 27bd 6a7f 043e 1982 99bd 8bc2 9f3b
000001a0: abcd 9d3d e1fb 353e 67d4 563e 7ed8 0abe
000001b0: 4ca5 163c db56 353e 98b4 c9bc 2ec2 133e
000001c0: 8226 543e 99d7 1dbd f1a1 633f bc0c 053e
000001d0: 5606 293e 7beb f5bc fb56 753c e339 653e
000001e0: e108 023c 1649 9b3d 1b8b 963d 574b 673d
000001f0: 30ab 953e f228 85bd 2051 2dbe 936f 543d
00000200: 35c4 ce3d a73b 293d c132 d03e 9433 b5bc
00000210: bf2c 133e a422 25be 2558 a0bf 0f04 89bf
00000220: 299f 18bf bb65 053e 08d0 2c3e c1b2 7d3e
00000230: 9445 a63d 19e9 173f 4b2c c13e 478a 1fbf
00000240: 3ec1 a23e 19e2 91be 7d07 c33e ee74 493e
00000250: 290e 8dbd d6cb 4fbe 9bd6 96bd f82a 1e3f
00000260: ca37 213e 8781 a53e 2cac 10bf b6c8 d7be
00000270: dc53 533e 1484 4abe c25a 8fbd 6128 603d
00000280: 6f56 8d3e 8777 a73e 6b09 b8bc 4235 35bd
00000290: bea6 003f 8ade 493e c482 783e c93e ffbd
000002a0: f5e4 e1be f378 2dbe 9c21 c1be c80b ad3e
000002b0: 741d e8be 6002 dbbc f56b bc3e 511d 7e3e
000002c0: 334e 60be 71d6 56bf 13b7 82bf ba2f 0abd
000002d0: b709 3f3d 5cd1 73be d2d4 2f3e 1e59 043f
000002e0: 8a63 e0be 6b20 b5bd e57b 1d3e 3a64 463e
000002f0: 2b33 0ebf ccc8 dcbd 469e 703e a9e0 d73e
00000300: d438 3b3e 8a32 853e ee65 3bbe 745d aebe
00000310: c736 6abd bb08 1c3e 9365 d4be a47a aebe
00000320: 9ae5 71be 5f75 3c3e ef37 223e 268f abbd
00000330: b9f8 103e 4a66 e93c 277c 303d dade a8bd
00000340: dc27 f53d af33 1bbe eb52 083e 77ad 7abd
00000350: cc15 c3be c4a6 5bbc f345 73be 7ff9 9e3d
00000360: bd32 c8bd f6ec f1bd 4f08 b93d e7d7 f7be
00000370: c86e 2c3e bbd7 a53d fdfc 9c3d d6a3 003e
00000380: b4b6 df3d 9856 bb3e 2763 1ebe dc10 f9bd
00000390: a673 fcbe 34c9 a1bd 6bd1 43bd d926 b33c
000003a0: b67a 39bc 50ab 87bd 46d2 1cbe 23e1 033e
000003b0: c59e d4bd e91d 883d 9635 19be d089 413e
000003c0: 5761 623e 9048 7c3e 86be 6ebf 8899 c0bd
000003d0: 2275 ec3d 87cb 43be c73d 39bd 715c cabd
000003e0: f5d2 f93d b20d 023d 2c83 4e39 1384 a1bd
000003f0: 629a 8bbe 486e c73d 25b5 b8be 74a8 77be

net.2.bias f4 [64]
-0.06979016 -0.024541128 -0.10611273 0.053984813 0.004317374 0.12845366 0.0018725767 -0.032315843
-0.02447399 0.04209321 0.07410872 -0.10276017 0.013195209 -0.092432335 -0.2096434 -0.18285081
-0.08978436 0.12971877 0.07588591 -0.11613829 -0.18552761 0.09645972 0.12062486 -0.0242188
-0.095780246 -0.007964194 -0.026301509 0.017227562 -0.03773199 -0.05707808 0.087424666 -0.15397325
-0.054929968 0.10604967 -0.0814722 0.08177567 -0.22433439 -0.045071594 0.071431674 -0.109045655
-0.06436595 -0.016888224 -0.073467456 0.38810876 0.32747015 -0.20180468 -0.153872 0.13096713
-0.02188099 -0.07919554 0.2060128 -0.10226098 0.08715889 -0.07475536 0.0896979 -0.04913852
-0.01929709 -0.018881742 0.22633453 0.059515793 -0.037331443 0.039563376 0.004991768 0.17767866
00000000: 25ee 8ebd 7a0a c9bc a251 d9bd 2e1f 5d3d
00000010: c278 8d3b 5b89 033e 3f71 f53a 9e5d 04bd
00000020: ad7d c8bc ee69 2c3d 50c6 973d ed73 d2bd
00000030: b830 583c 2a4d bdbd c2ac 56be 3e3d 3bbe
00000040: dde0 b7bd ffd4 043e 126a 9b3d e9d9 edbd
00000050: f3fa 3dbe ac8c c53d 2b0a f73d 8166 c6bc
00000060: 6f28 c4bd 407c 02bc 4376 d7bc d120 8d3c
00000070: dc8c 1abd b4ca 69bd b40b b33d 2aab 1dbe
00000080: 3ffe 60bd 9230 d93d e6da a6bd 017a a73d
00000090: eab7 65be fe9c 38bd c54a 923d 5453 dfbd
000000a0: 4cd2 83bd 2c59 8abc 1b76 96bd 31b6 c63e
000000b0: 2baa a73e e3a5 4ebe 9f90 1dbe 3f1c 063e
000000c0: c33f b3bc 4531 a2bd 05f5 523e 346e d1bd
000000d0: 5c80 b23d 5719 99bd 88b3 b73d 7945 49bd
000000e0: ee14 9ebc e2ad 9abc 3dc4 673e d5c6 733d
000000f0: dbe8 18bd 350d 223d fc91 a33b 65f1 353e

net.4.weight f4 [1, 64]
0.30643135 -0.60371786 2.6702769 0.87727207 -0.4701956 0.47064042 -1.0982999 -1.073137
0.4646518 0.27140757 1.3782786 -1.3283596 -0.9462891 -1.2502556 -0.86817694 -1.1572531
-0.736069 -0.71973586 -0.55412847 -1.8098512 1.112963 0.689262 -0.8055318 0.5098129
1.0722998 -1.020595 0.34103093 -0.80674577 0.85836065 -0.8499393 -0.53710854 1.3260694
-1.5264776 1.8585752 -0.32277125 -1.3686216 1.1397413 -1.1207279 -1.2706708 -1.0597996
-1.584059 2.3204825 -0.86074936 0.54767025 0.8098612 0.44236124 0.79444003 -1.0741549
-1.0121516 -0.9445628 1.0480994 -1.0158368 -0.52245384 0.9696249 -1.3315064 -0.9166768
-0.60038036 -1.2339705 0.48801184 -0.37895676 -0.57603174 -2.2632196 -0.60863614 0.5527367
00000000: 92e4 9c3e 418d 1abf d1e5 2a40 e794 603f
00000010: 7abd f0be c8f7 f03e 1795 8cbf 8e5c 89bf
00000020: d7e6 ed3e eff5 8a3e 6f6b b03f b007 aabf
00000030: 0140 72bf 6008 a0bf d840 5ebf df20 94bf
00000040: 056f 3cbf 9c40 38bf 5ddb 0dbf 34a9 e7bf
00000050: 9275 8e3f 7973 303f 5537 4ebf 1983 023f
00000060: 1f41 893f dba2 82bf 9b9b ae3e e486 4ebf
00000070: 86bd 5b3f 9f95 59bf f27f 09bf a4bc a93f
00000080: 9e63 c3bf cbe5 ed3f 4642 a5be fe2e afbf
00000090: 0be3 913f 0374 8fbf 57a5 a2bf 83a7 87bf
000000a0: 72c2 cabf c982 1440 125a 5cbf 1e34 0c3f
000000b0: 1053 4f3f 2c7d e23e 6c60 4b3f e87d 89bf
000000c0: 2f8e 81bf dece 71bf 1f28 863f f106 82bf
000000d0: 89bf 05bf 5639 783f cd6e aabf 55ab 6abf
000000e0: 87b2 19bf bff2 9dbf b0dc f93e 9f06 c2be
000000f0: d176 13bf 97d8 10c0 94cf 1bbf 2780 0d3f
