two_agent_swap/magail_models_gpu/G1.pth (torch, 20758 bytes, 6 tensors)

net.0.weight f4 [64, 4]
000000 7b 46 c8 3e 89 92 09 3f 3c b1 c1 bd a8 dc b0 3e
       0.39116272 0.5373922 -0.09457633 0.34543347
000010 1e 48 b5 be be 91 40 3e 01 cc 49 be 05 cf 90 3e
       -0.35406584 0.18805596 -0.19706728 0.28282943
000020 33 24 cb 3e e3 1a 80 be b4 ca 04 3f d7 ab 1a 3d
       0.39676055 -0.25020513 0.518718 0.037761535
000030 dd d9 b7 3e 5d 92 81 bd 71 39 ed 3d 5b 5b 15 bb
       0.35908404 -0.06326745 0.11583222 -0.0022790048
000040 ae 78 d8 3e 58 c8 81 bd 03 b7 92 be 49 4d 0b 3d
       0.4227957 -0.06337041 -0.28655252 0.03400925
000050 0e 62 ea be d6 41 d1 3d 9e 5e 05 be 0c d9 79 3e
       -0.45777935 0.10217635 -0.13024375 0.24399203
000060 66 96 ba be d0 e1 e0 3d a8 b2 52 be 59 39 58 be
       -0.3644287 0.1098057 -0.20575964 -0.21115626
000070 91 a5 15 be f4 ec 22 be ba f1 7e 3e 7e 5e 1b be
       -0.1461394 -0.15910703 0.24896899 -0.15172765
000080 64 ca dc 3e 7d 54 78 3e 0a 3a 74 be d0 c0 37 3d
       0.43123162 0.2425098 -0.23850265 0.044861615
000090 56 cd 6d bd 6f 7b f8 3e bd 46 cc 3c e6 ff 20 be
       -0.05805715 0.48531672 0.024936074 -0.15722618
0000a0 c4 ca 07 3e a9 d1 84 be 66 73 70 3e 6e 14 97 3e
       0.13260943 -0.25941208 0.23481521 0.29507774
0000b0 7f e0 a4 3e 1f ca c7 bd 28 84 aa 3e c8 1d 39 3e
       0.32202527 -0.097553484 0.33303952 0.18077767
0000c0 82 bf 9e 3e 68 2e ae be 8a 5c f3 be 30 e8 53 bd
       0.31005484 -0.3401978 -0.4753154 -0.051735103
0000d0 d9 34 aa be d8 1b c8 3e ab 7c 8a 3d 3c fc 82 3e
       -0.33243445 0.39083743 0.0676206 0.25583065
0000e0 da c9 55 3d f2 6e 5e 3e 33 fb 81 3e ad cf 1f be
       0.052194454 0.2172201 0.25386962 -0.15606566
0000f0 45 1b 21 3e 51 44 af be 93 2f 2a 3e 9c 68 b4 bd
       0.15733059 -0.3423181 0.1661971 -0.08809015
000100 3f 8d 61 3c 94 0b e3 bc 43 1e b9 3d 9f 4c e9 bd
       0.013766586 -0.027715482 0.09038975 -0.113915674
000110 d9 47 b6 be d2 ab 6a be a3 10 a8 3e 77 d7 00 3e
       -0.3560169 -0.22917107 0.32825193 0.12582193
000120 a6 98 0a 3f 26 31 d5 be 78 60 ee be 1b 3f 80 be
       0.54139173 -0.4163906 -0.46557975 -0.25048146
000130 11 6e cf be 45 57 45 3e 3c 73 0f 3e 93 a0 96 3e
       -0.40513662 0.19271572 0.14008802 0.29419383
000140 e7 7f 58 be b1 3a 9c be af be 94 3e cf 70 46 be
       -0.21142541 -0.30513528 0.2905173 -0.1937897
000150 73 b4 96 3e 19 e5 c8 bd 7c 08 88 3e c0 91 39 be
       0.29434547 -0.09809322 0.26568973 -0.18122005
000160 2c b7 8d be 81 dc 50 3e 6b ce 1a 3e 07 79 9d bd
       -0.27678812 0.20396616 0.15117805 -0.076891
000170 8d 3e 62 3e 56 b2 19 3f 8a c2 95 be 0a 6a f1 bd
       0.22094174 0.60037744 -0.29249984 -0.117878035
000180 24 79 d1 3e 15 e0 8b bd 00 fe 25 be 6a 0f 7b be
       0.40912735 -0.0682985 -0.16210175 -0.24517599
000190 6c f5 a1 be cd 20 a6 3d 62 db 05 be 30 13 c0 be
       -0.31632555 0.08111725 -0.13071969 -0.3751464
0001a0 2e bc d1 be 3f b8 bf be 22 8f d1 be 8e b4 2a bd
       -0.40963882 -0.37445256 -0.40929514 -0.041676097
0001b0 fe e9 49 be d9 fe 93 be 8b 16 ef 3e 4d e1 2e 3e
       -0.19718167 -0.2890537 0.46696886 0.17078133
0001c0 41 73 99 3e 4a be 06 bf 15 e4 a3 be 35 65 3f 3e
       0.29970744 -0.5263411 -0.3200995 0.18690951
0001d0 ae 05 fb 3d 67 35 ef be 2d dd 7a be 9a fb 0f be
       0.12256943 -0.4672043 -0.24498434 -0.14060822
0001e0 c2 c9 7c bd 86 c4 29 bc d0 0f a8 bc bc 80 d8 be
       -0.06171585 -0.010361796 -0.020515352 -0.42285717
0001f0 4e 77 71 be 59 e0 84 be e4 a4 82 be 13 de 03 be
       -0.23580667 -0.25952414 -0.25516427 -0.12877683
000200 b5 c1 cc 3e b8 32 cd bd 03 df c3 3e fc 64 9d 3d
       0.39991537 -0.100194395 0.38256082 0.07685277
000210 23 5d 01 bf b0 42 6e 3e ad fe 8f bd 0f 32 5f be
       -0.5053274 0.23267627 -0.070309974 -0.2179644
000220 86 ab d8 be 53 b1 04 bf 53 65 93 3d 44 79 e0 3d
       -0.42318362 -0.51833075 0.071970604 0.109606296
000230 37 d8 8f 3e 5e ae cd be b8 64 c0 3e c8 00 03 be
       0.28094646 -0.40172094 0.37576842 -0.12793267
000240 f9 85 90 be 5d b2 99 3e 01 34 01 3e f0 56 47 3d
       -0.28227213 0.30018893 0.12617494 0.048666894
000250 52 df 1e 3f 58 1b cb be 89 be 71 3e 2b a5 62 bc
       0.6205951 -0.396693 0.2360784 -0.013833324
000260 e5 ae cd bd 8f 23 9f be d3 44 c4 3e 22 4f bb bd
       -0.10043124 -0.31081817 0.3833376 -0.09145953
000270 9a 9c c0 3e eb 72 52 3e a3 e3 47 3e 84 7a 84 be
       0.37619478 0.2055165 0.1952043 -0.25874722
000280 17 68 ff 3e 2e a1 21 3e a8 b5 a1 3d 05 1a 96 be
       0.49884102 0.15784141 0.07895976 -0.29316726
000290 f2 9f 2b 3e 33 36 77 3d 87 49 a5 be 51 14 d7 3e
       0.16760233 0.060354423 -0.3228266 0.42007688
0002a0 e9 06 cd bd f7 bc ce be 8b 5a 48 be 1a 7f 37 3d
       -0.10011084 -0.40378544 -0.1956579 0.044798948
0002b0 81 12 f1 3e 44 ec 6b be c4 67 83 be dc c4 ad 3c
       0.4708443 -0.23039347 -0.25665104 0.021212034
0002c0 9d b6 d7 be 8f f5 63 3e 13 1a e8 3e 21 6c 60 be
       -0.4213151 0.22261642 0.45332393 -0.21916248
0002d0 2d 39 04 3e 68 12 c9 3e 1c 9b ff 3d 18 20 35 be
       0.12912436 0.39271855 0.12480757 -0.17688024
0002e0 96 fa 8d 3e 87 8a d9 3e 86 a4 4e 3e 7b 7a f2 bd
       0.27730244 0.424885 0.20179948 -0.118397675
0002f0 53 73 87 be af b2 2c be e1 d8 32 bd e4 27 00 be
       -0.26455173 -0.16865037 -0.043663863 -0.12515217
000300 85 a1 1f 3e 72 f6 04 3f 3b 66 cc 3d 9e 5b dd bd
       0.15588959 0.51938546 0.099804364 -0.1080849
000310 b9 00 1a bd cc 0e 62 3d 9c 99 2d bd c6 3d 50 3d
       -0.037598345 0.055189893 -0.04238282 0.05084016
000320 f8 a0 e4 be cc 5e 1c be cd 2d d2 3e 80 e7 07 3e
       -0.4465406 -0.15270537 0.41050568 0.13271904
000330 cd 3b 96 bc e3 5f f4 bd 50 5f ce be 6d 71 8e be
       -0.018339062 -0.119323514 -0.40307093 -0.27820912
000340 bc d1 82 bd c3 d9 41 3e 5f ef 3a 3e b1 6d 94 bc
       -0.0638766 0.18930726 0.18255375 -0.018118711
000350 1d b3 f2 be 51 ac 95 be 12 89 e4 bd 4e 31 a4 3e
       -0.47402278 -0.2923303 -0.111589566 0.32068866
000360 57 99 13 3e d9 cb e4 bd f1 86 90 bc 28 97 09 bc
       0.14413963 -0.11171693 -0.01764247 -0.008397855
000370 b8 af bb be 65 94 b1 3e 57 c4 8b be 61 29 10 bd
       -0.366575 0.3468353 -0.27298233 -0.035195712
000380 aa 96 09 bf 76 ab f8 3e 4b 60 af 3e b9 48 6a 3e
       -0.5374552 0.48568314 0.34253153 0.22879304
000390 6d 9d 67 be 0d 0d 2b bf 03 57 b7 be 44 98 95 3e
       -0.22618647 -0.6681679 -0.35808572 0.29217732
0003a0 e7 39 3a 3e c7 41 f3 3e 09 46 31 3e a5 8b a0 3d
       0.1818615 0.47511122 0.17311873 0.07839135
0003b0 06 31 fb 3d 03 12 ff bd 64 4c f5 be d3 60 8c be
       0.1226521 -0.12454607 -0.47909844 -0.2741762
0003c0 e5 18 30 3e 69 ae ca be 0a 96 73 bd ab 29 e0 bd
       0.17196997 -0.3958619 -0.05946926 -0.109454475
0003d0 df 6a 33 be 13 90 8c be fa 53 75 be 8f b7 27 3e
       -0.17521237 -0.2745367 -0.23957816 0.16378616
0003e0 c1 8b 8b be f6 d5 e0 3e 93 38 16 be f2 67 bc be
       -0.2725506 0.4391324 -0.14670019 -0.36798054
0003f0 8a bf 76 be ff 0e 9a be fc 6c 42 be a6 21 53 be
       -0.24096504 -0.30089566 -0.18986887 -0.20618305

net.0.bias f4 [64]
000000 dd 28 a5 3e 34 fe e7 be 1b e0 9d 3e cb fa ff 3d
       0.3225774 -0.4531113 0.3083504 0.12499007
000010 6c d0 cc 3e 23 6d d5 be b1 ed 9d 3e 34 a5 03 bf
       0.40002763 -0.41684827 0.30845407 -0.51423955
000020 0c 0a 0c 3e 04 39 f8 3e 92 e6 ed bd 5d ff 41 ba
       0.13675708 0.48481 -0.116162434 -0.0007400418
000030 01 1f b6 bd 11 32 d7 be 0e 64 07 3e bd e1 0a bf
       -0.08892632 -0.42030385 0.13221762 -0.542507
000040 cb cc 96 3d 90 ae 9b 3e 82 b2 07 3f 31 12 84 bd
       0.0736328 0.30406618 0.53006756 -0.06448782
000050 1a 41 d5 be e0 d9 a5 3d ab 98 b5 3e 42 b9 dd be
       -0.4165123 0.08098197 0.3546804 -0.43305403
000060 58 c7 6d bd ad e8 99 be 66 88 44 be 90 aa 4e be
       -0.058051437 -0.3006033 -0.19192657 -0.20182252
000070 0a bf 81 be ed 9b 40 be cc 92 06 bf 94 bc 8d 3e
       -0.25341064 -0.18809481 -0.52567744 0.27682936
000080 2f fc c4 3e f0 48 f6 bd f0 69 02 be 7f 21 2a be
       0.3847365 -0.120256305 -0.12735724 -0.1661434
000090 35 dd 3c bf 6d e6 ad be c7 ee a7 3d 97 f2 45 be
       -0.73775035 -0.33964863 0.0819984 -0.19330822
0000a0 f2 78 7e be f0 ea 0b be ee bf 30 be 84 52 7c be
       -0.24850824 -0.1366384 -0.17260715 -0.24640852
0000b0 b5 a1 c8 3d 94 91 67 bd ad ec 04 be e6 9a 43 be
       0.09796468 -0.05653532 -0.1298091 -0.19102058
0000c0 ec f2 89 be e9 78 ac 3e ee d6 0c be d6 5f e8 3c
       -0.26943147 0.33685997 -0.13753864 0.02836601
0000d0 17 63 91 be 26 ed c8 3d 06 54 98 3e 42 cb 7c 3e
       -0.28395912 0.098108575 0.29751605 0.24686912
0000e0 0e 78 d2 be 8a e8 6e 3e 01 45 dd 3e d0 09 2c 3e
       -0.4110722 0.23330894 0.43216708 0.16800618
0000f0 f2 c0 aa 3e 75 fa 0c 3f 07 d4 58 bd bd ab 3d 3d
       0.3335033 0.5506967 -0.05293658 0.04630636

net.2.weight f4 [64, 64]
000000 ca 52 47 3c 49 6f 0f 3e 16 d5 20 3d 19 e1 91 3d
       0.012165735 0.14007296 0.039265715 0.07123012
000010 9b ab 17 bd eb 00 c9 3d 55 2c 34 be 04 40 b0 bf
       -0.03702889 0.09814628 -0.17595036 -1.3769536
000020 67 85 a5 bd bb 24 c7 3d d1 a1 af 3d e5 24 0c bd
       -0.08082085 0.09723803 0.08575786 -0.034214873
000030 e5 64 c7 bd dc 45 ae 3c bc 76 88 3d e1 af 46 be
       -0.09736041 0.021273546 0.06663272 -0.1940303
000040 ba e8 13 bd ea 5a 60 3d 19 2c 0e be 90 0b 1e 3d
       -0.036110617 0.054774202 -0.1388401 0.038585246
000050 e3 17 08 bf 0e ec 78 bd a3 be 9f ba f2 9c 76 bd
       -0.5316145 -0.060771994 -0.0012187551 -0.06020827
000060 13 75 23 be 2b 57 cb 3d 75 2f 61 3f 6e 43 84 bd
       -0.15962629 0.09928735 0.8796304 -0.06458174
000070 58 6c 26 3f 8f bb 38 3e ed f4 5a be 96 c9 7f bd
       0.6500907 0.18040298 -0.21382494 -0.062448107
000080 bb 43 d8 3d 35 61 80 3d df 94 9c be c5 05 51 bd
       0.105597936 0.06268541 -0.3058233 -0.051030893
000090 d7 46 6a 3e fb 03 d4 bd 10 c5 2c be 41 08 cc 3d
       0.22878586 -0.10352322 -0.16872048 0.09962512
0000a0 19 c0 72 bd 90 2f 6c bd ab 59 5c 3e 06 cc a5 bd
       -0.05926523 -0.057662547 0.2151858 -0.08095555
0000b0 27 14 a0 3d d7 86 24 3e 21 dc d8 3d 9e 90 0a bf
       0.07816344 0.16067062 0.10588861 -0.5412692
0000c0 4c 64 c3 bb f7 4f ff 3c 34 26 de 3d 5f f5 0a 3f
       -0.005962884 0.03116606 0.108471304 0.54280657
0000d0 50 b9 0f be 41 10 81 bd ff a3 de bd 0a af e1 3c
       -0.14035535 -0.06301928 -0.108711235 0.027549285
0000e0 6d cb d6 3d f3 a6 9d bd 96 0d 55 3e fc e0 a9 3c
       0.10488019 -0.07697859 0.20805964 0.020737164
0000f0 0d fa 6f 3a 4b ab f4 bd f8 20 40 3e dd d0 87 be
       0.0009154387 -0.11946734 0.18762577 -0.26526538
000100 56 06 89 3d c8 d6 75 bc d8 f9 0e be a7 d2 99 bd
       0.066906616 -0.015004821 -0.13962495 -0.07510882
000110 07 a7 59 3d d9 0a 83 be cf c0 e2 be 0b b6 15 3e
       0.053137805 -0.25594214 -0.44287726 0.14620225
000120 61 cd 4f 3e ad a8 d9 3d 9e 11 c6 3c 97 12 ed bc
       0.2029319 0.106278755 0.024178322 -0.028939528
000130 e6 ca 7a bd 67 26 31 3d 76 a5 3b bc ab ad 85 3d
       -0.061228655 0.043249514 -0.011453023 0.06527265
000140 dc 74 76 bc 83 91 ae 3d 86 5b 69 bd 48 f9 c3 bc
       -0.01504251 0.08523848 -0.05697205 -0.023922578
000150 18 b4 14 3e ed ce 67 be c2 26 c3 bd 33 c4 9d 3d
       0.14521825 -0.2263753 -0.09528877 0.07703438
000160 ab f1 55 be 6b f9 04 3e 68 bf 78 3e b0 17 8d bd
       -0.2089297 0.1298577 0.24291766 -0.06889284
000170 c9 88 6d 3e d1 8e d9 3d 3b 0f b9 3e 0c 8d 31 3d
       0.2319671 0.10622943 0.36144432 0.043347403
000180 7f 5d a8 bd 6f 26 c4 be 12 16 73 3c 8b 66 3f bd
       -0.08220958 -0.38310573 0.014836805 -0.046728652
000190 42 03 1f 3e 6c 36 96 bd 2f 89 a7 bc 5b 6f b2 3d
       0.15528587 -0.07334599 -0.020451156 0.087126456
0001a0 99 25 f5 3e b1 88 49 3e 5c 05 35 3b b3 c5 22 be
       0.47880247 0.1968105 0.0027621603 -0.15895729
0001b0 7e 8f c0 bd a1 b0 fd 3c 09 ad c6 3d 2e 3c 12 3e
       -0.09402369 0.030968012 0.097009726 0.14280769
0001c0 bf 16 b0 bd ac 48 2e 3d 8c 5b c0 bd 43 7a 17 3e
       -0.085980885 0.042549774 -0.09392461 0.14792733
0001d0 b0 14 57 bc e8 5d 87 3d 42 46 4c bd 0f 6f 8c 3c
       -0.013127491 0.06609708 -0.04987169 0.0171428
0001e0 83 0b 31 bd 78 c4 d0 3d 85 65 89 3c 22 7c 73 3c
       -0.04322387 0.101937234 0.016772041 0.014861139
0001f0 91 5f 0f 3e 5b b8 83 3b d3 35 79 be a2 5e 6f 3e
       0.140013 0.0040197796 -0.24336939 0.23375943
000200 af 27 7f 3e 7a eb 41 3c 78 10 af 3c a2 05 aa bd
       0.24917482 0.011835927 0.021370158 -0.083018556
000210 52 95 16 bc 99 54 1a 3d 60 89 9c bc 9b 20 05 3e
       -0.009190874 0.037678335 -0.019108474 0.13000719
000220 58 67 50 3d 54 b6 5a 3e cf 81 bf 3d 96 86 c8 bc
       0.050879806 0.21358615 0.09350931 -0.024478238
000230 13 50 eb bc b0 a5 e2 3d ef ae 93 3d 7b b0 b8 38
       -0.028724706 0.11066759 0.072111 8.806676e-05
000240 ab 5f 60 3d 1e 90 dc bd e6 d2 a0 bd 41 4e a3 bc
       0.054778736 -0.10769676 -0.07852726 -0.019934775
000250 cd 2e ce 3d 56 62 06 3e 4b a2 c1 3d 59 d3 c8 3d
       0.1006752 0.1312345 0.09454783 0.09805936
000260 65 d0 cb 3d de 82 db 3c bf cd 20 bc f2 2a 0a 3d
       0.099518575 0.0267958 -0.009814679 0.033732362
000270 44 1a 2a 3e 7a af 33 bd f1 a4 85 be 7a 4f af bc
       0.16611582 -0.04386852 -0.26102403 -0.021400202
000280 e8 33 fa 3d 09 c1 06 3d 26 3c e8 bd 6e c3 0b 3d
       0.122169316 0.032898936 -0.113395974 0.034121923
000290 9e d2 70 3d 6a c7 ee bc 4d 00 37 3c 7e 3e cc 3c
       0.05879461 -0.029147822 0.011169505 0.024932142
0002a0 4d f7 1a 3e 61 ae 55 3e 68 ce 65 3e db 7f 1d 3b
       0.151334 0.20867302 0.22442019 0.0024032507
0002b0 58 9d b5 3c ea 35 15 3e 01 44 d8 3d 51 6e 5b bc
       0.022169754 0.14571348 0.10559846 -0.013393001
0002c0 49 75 4e 3e 63 8f 1b 3e eb 53 8b bd 60 22 59 bc
       0.20161928 0.15191416 -0.068031155 -0.013252825
0002d0 7d db 18 bc 6b 75 00 be 7a 46 30 3d a0 b4 48 3e
       -0.009329674 -0.12544791 0.04303596 0.19600153
0002e0 db 4e 18 3e 14 90 72 3d ba f0 ac 3c 59 b4 6f bd
       0.14873831 0.059219435 0.021110881 -0.058521602
0002f0 6a 0e fc bc 8c bd b2 bd 1c 78 cf 3d c1 eb 07 be
       -0.030768592 -0.087275594 0.10130331 -0.13273527
000300 f9 2b 91 3d 97 c5 06 bd cc 2b 77 3c b4 03 71 bc
       0.07088465 -0.03290328 0.015086126 -0.014710356
000310 91 07 46 3e 1b e5 2c bd a2 06 fc 3b a2 92 23 bd
       0.19338824 -0.04221068 0.0076912204 -0.03993476
000320 76 b2 b2 3d 57 46 85 3d 97 30 99 3d 6c 71 22 3e
       0.08725445 0.06507557 0.07479971 0.1586358
000330 0e d4 d7 3d ef 20 6b bd a8 d3 a2 3d a4 f9 dc 3d
       0.10538493 -0.057404455 0.079505265 0.10789803
000340 a5 3e 81 3d 67 32 3b 3b e4 df 2f 3e 64 22 b3 bd
       0.063107766 0.0028563978 0.17175251 -0.08746794
000350 f0 f5 b2 bc ed d5 48 3e 53 c3 46 bd 6a d9 09 bc
       -0.021845788 0.19612856 -0.04852612 -0.008413652
000360 7c 10 59 bd a7 b0 8b bc 6c 2e 83 be 74 7a ab 3d
       -0.052994236 -0.017052008 -0.25621355 0.083729655
000370 2d 33 2d 3c 8f 97 ac 3d 3a ef 85 3e 00 26 36 3d
       0.010571283 0.08427345 0.26159078 0.044469833
000380 6d 06 43 3e c2 6c a6 bc 41 19 16 3e 7c 0b 46 3e
       0.1904542 -0.020315532 0.14658071 0.19340318
000390 92 f9 df bc 93 84 c8 3d 86 9b e1 3c 2c 04 1b 3e
       -0.027340684 0.097909115 0.02753998 0.1513831
0003a0 63 eb e6 3c 4c 9a 1c 3e bb 5a 13 3e 83 bb 99 bd
       0.028188413 0.15293235 0.1439008 -0.07506468
0003b0 44 44 23 bc 31 df 09 3c 34 d0 13 3e e4 73 1a 3e
       -0.009965006 0.008415029 0.14434892 0.15083271
0003c0 10 c5 11 3e 95 93 19 3e 3e ae 8f bd 5d f3 a7 bd
       0.1423533 0.14997704 -0.07015656 -0.08200715
0003d0 76 df 5c bd 31 92 da bd 1a 90 64 bd 83 f4 b9 bd
       -0.053924046 -0.10672415 -0.05580149 -0.0907984
0003e0 3a a5 56 be d9 37 06 be c1 5c 49 bd fa fb 9f bd
       -0.20961466 -0.13107242 -0.049160723 -0.078117326
0003f0 1d 2f 03 3d 29 2e e2 3d 42 74 9b 3c 9a c0 af bc
       0.032027353 0.110439606 0.018976334 -0.021454144

net.2.bias f4 [64]
000000 40 24 00 3e 95 98 05 be 81 98 77 bd f8 52 20 3c
       0.12513828 -0.13046487 -0.060448173 0.009785406
000010 ae b4 f8 bd cf c5 28 be e5 d7 04 be 72 cc 14 3d
       -0.12143837 -0.16481708 -0.12972982 0.036327787
000020 37 b3 94 3d 6d 7a 3f bd 0e 3e b5 3d db 28 8d bd
       0.07260745 -0.046747614 0.088497266 -0.06892558
000030 c7 e8 80 bd 0f 88 b7 bd f4 4d 8e bd d8 cc 2a bd
       -0.06294399 -0.08961498 -0.06948462 -0.04169926
000040 8d 54 25 3d 8a 0c da 3c bc 34 f5 bc b3 3b e4 3b
       0.040363837 0.026617307 -0.029932372 0.0069651245
000050 9c 84 89 3d ab fb f4 bd 53 b0 f1 3d 55 9c 16 3e
       0.06714746 -0.11962064 0.11801209 0.14708073
000060 cb d4 22 3c 6b de 01 3e 20 46 a6 bc a8 89 22 3d
       0.009938429 0.12682502 -0.02029711 0.03968206
000070 83 30 af 3d 4e df 2b 3d 34 b6 53 3e 64 10 6f 3d
       0.08554175 0.041961007 0.20674974 0.05836524
000080 97 69 ec bc 03 87 bd bd ff 64 fb bd 6e bf 02 bd
       -0.028858943 -0.09254267 -0.12275123 -0.031920843
000090 50 8f c0 bd e0 29 7f bd a1 ed fa b7 f2 0e 3b be
       -0.09402335 -0.062295794 -2.9912977e-05 -0.1826742
0000a0 4c 34 de 3b bf 7a 54 3d c2 97 89 bc cb 8b 3a 3e
       0.0067811366 0.051874872 -0.016795997 0.1821739
0000b0 e6 c1 40 bb bd 70 6b bd f4 a4 33 bd ac 6e 0c 3c
       -0.0029412447 -0.057480562 -0.043858483 0.008571308
0000c0 19 4d ce bd 12 5b bb 3b f2 11 a4 bd 4c 69 1c 3d
       -0.10073299 0.0057176435 -0.08011235 0.038186356
0000d0 31 b8 b5 3d c6 48 0f 3d fe 57 dc 3d 5d 61 c7 bd
       0.08873022 0.03498151 0.10758971 -0.097353674
0000e0 f3 45 82 bd bd 6d b5 bd a7 07 54 3d 13 f6 b7 bd
       -0.06360998 -0.088588215 0.05176511 -0.08982482
0000f0 32 15 d5 bd b8 e8 d4 bd 38 b5 e0 3b 9b e1 2d 3d
       -0.10404433 -0.1039595 0.0068575405 0.042451482

net.4.weight f4 [2, 64]
000000 7f e5 9d bb cb 3a bf 3d 49 9c ae 3d 30 58 ed 3d
       -0.004818618 0.09337386 0.08525903 0.11589086
000010 bc 57 9a bd 3b be c7 3c df bc 9d 3d 3f 1c 8d bd
       -0.07536265 0.024382701 0.0770204 -0.06890153
000020 2d c6 ce bd 3a 6d 85 3d fb a4 4e bd 04 8a 97 3d
       -0.10096393 0.06514974 -0.050450306 0.07399371
000030 4d 4e a1 bd 9b 61 d6 3d d0 bc d5 3d 27 c5 95 bc
       -0.07876263 0.104678355 0.10436404 -0.018282486
000040 0a f7 ce bd 37 df 1c be c3 2f 12 bd ce b3 95 3d
       -0.10105713 -0.15319525 -0.03569008 0.07309686
000050 40 49 ab bd ea 42 06 3d 5d 59 bc 3d e7 ea c7 bd
       -0.08363581 0.032778658 0.09196732 -0.09761601
000060 e2 40 b6 bd 2e 1c 73 bd c0 70 4f bd 84 0d e0 bc
       -0.08899094 -0.059353046 -0.050644636 -0.027350195
000070 44 fb ab bd 79 30 d8 3d 56 34 1b bd f7 88 c5 bc
       -0.083975345 0.105561204 -0.03789171 -0.024113161
000080 20 9a 23 3b c8 79 6d 3d 65 ab cd bd 78 71 c0 bc
       0.0024963692 0.057977468 -0.100424565 -0.023491606
000090 6a 2d b9 bd ca bd 07 bd 3e 7e fc bc ef 34 35 3e
       -0.09041865 -0.03313998 -0.030821916 0.17695974
0000a0 b7 cd 01 be 39 c9 d4 bd a9 c5 2c be dd 4d aa bd
       -0.1267613 -0.10389943 -0.16872276 -0.083156325
0000b0 ec 3d 73 bc 8a d5 94 bd 00 2e ad 3a 30 3d 6a 3d
       -0.014846306 -0.07267292 0.0013212562 0.05718726
0000c0 6d db ab bc 15 dd 39 3d 90 f9 ea 3c 9d 00 0f 3d
       -0.020978654 0.045376856 0.028683454 0.034912694
0000d0 b6 ce 9c bc dc 5e 16 3e 53 8c 02 3e 73 e1 50 3d
       -0.019141536 0.14684623 0.12748842 0.050996255
0000e0 a7 81 a8 3d 02 2a 71 bc 0a 89 fd bc 78 c1 12 bd
       0.08227854 -0.014719488 -0.030949134 -0.035829037
0000f0 1b 90 d3 3d 21 fc 04 3e ed 7e 84 bc 7c 17 d2 3c
       0.1033022 0.12986805 -0.016173804 0.025645964
000100 d9 e0 fc 3d 69 7b 19 3f 25 ba 23 3e 8f f9 6f bd
       0.12347574 0.59953934 0.15988977 -0.058587607
000110 fc fc 27 bd ca b6 9d 3a 70 af 7d 3d e8 13 16 be
       -0.04101275 0.0012032625 0.06193489 -0.14656031
000120 12 93 01 be 39 1f c2 3d 1b 68 82 3d fd 34 ca 3d
       -0.12653759 0.094786115 0.06367513 0.09873388
000130 ce 38 a3 bd 59 56 a1 bd 64 1b e7 bd 92 6d 48 bf
       -0.07969819 -0.07877798 -0.11284521 -0.7829219
000140 62 6d e3 bd f2 39 8f 3d c3 18 9c 3d 8c 1b 86 bd
       -0.111048475 0.06993474 0.076219104 -0.06548223
000150 5d 6c 97 3d d8 3b de 3d 6c d0 ea 3d 10 13 ae bd
       0.073937155 0.10851258 0.114655346 -0.0849973
000160 ba 29 a9 3d 9a a4 bf bd f6 9a ba 3d 36 51 27 be
       0.08259912 -0.09357567 0.09111588 -0.16339573
000170 3b cb 6b 3d 94 d9 ad bd 02 00 db 3d a2 d7 b9 bd
       0.057566863 -0.08488765 0.10693361 -0.09074332
000180 da 95 9c bd 54 0b 08 bd cd fe 0c be 49 21 9f bd
       -0.076457694 -0.03321393 -0.13769074 -0.077700205
000190 78 ab 0f bd f0 da c9 bb 30 6a 21 3e 37 22 13 bd
       -0.035075635 -0.0061601326 0.15763164 -0.0359213
0001a0 eb 79 17 3e 6d 8d 17 be c5 fd 45 3d 17 3a 5a 3c
       0.14792602 -0.14800043 0.048337717 0.013319514
0001b0 a9 fd 59 bd 2c cf 0c 3e 5a 8a ec 3d b7 e5 9c 3d
       -0.053220425 0.13750905 0.11549826 0.07661002
0001c0 b3 8b c6 bd 0e 91 e5 bc b0 6e cb bc f8 c2 e2 bd
       -0.09694614 -0.028023269 -0.024833053 -0.110723436
0001d0 36 bb 01 3d a0 53 91 3d a3 c1 0a 3e e6 83 59 3c
       0.03167268 0.07096028 0.13550429 0.013276076
0001e0 20 17 be 3a c4 01 06 bd 02 a1 ab bd 9d 3f 64 3d
       0.0014502741 -0.032716528 -0.08380319 0.05572473
0001f0 b9 d1 f6 3c 0f 8f 85 3c ce e7 f6 bd 2f 52 c5 bd
       0.0301293 0.016303567 -0.12055932 -0.09634816

net.4.bias f4 [2]
000000 7c e8 f7 3b 2c 61 97 bd
       0.007565556 -0.07391581
