two_agent_swap/magail_models_gpu/G2.pth (torch, 20758 bytes, 6 tensors)

net.0.weight f4 [64, 4]
000000 68 3d 87 3e 39 73 05 bf ba 42 65 be ce 7f 6e 3e
       0.26414037 -0.5212894 -0.22388735 0.23290941
000010 3b 52 cf 3e 7b 75 3a 3d d9 20 bc be 8e 7a 6c be
       0.40492424 0.045522194 -0.3674381 -0.23093626
000020 62 37 f7 bd 9b 63 dd be dd 06 af 3e 04 bf 9d be
       -0.1207111 -0.43240055 0.34184924 -0.30809796
000030 3a ce cb 3e f2 e5 06 3e 1e 06 94 bd bc bc 85 3e
       0.39805776 0.13173655 -0.07227729 0.26120555
000040 e3 77 6e 3e 58 bb 8e be 7e 7b 98 be aa 6b b3 bd
       0.2328792 -0.27877307 -0.29781717 -0.0876077
000050 d8 60 59 3e 62 53 d8 3e 96 65 10 be 35 7d 0c be
       0.21228349 0.42251116 -0.14101252 -0.13719638
000060 97 8d c2 be 89 3e 6b 3e 86 01 00 3f c7 ad 58 3e
       -0.3799865 0.22973074 0.50002325 0.21160041
000070 43 57 88 be 16 e4 9d 3e 6b b0 43 be c2 ad 8a 3d
       -0.26629075 0.30838078 -0.19110267 0.06771423
000080 64 4e 1e 3f f2 a2 ba be 69 f7 89 3d f2 ac 27 3a
       0.61838365 -0.36452442 0.06736643 0.00063963153
000090 86 f5 63 be 3e 9e 18 3f 43 cb 9e 3e 0d 09 c9 3e
       -0.22261629 0.5961646 0.3101445 0.39264718
0000a0 c1 8d e6 3c f9 e6 a7 be 7b ef 0d be 9e 84 03 3e
       0.028143765 -0.32793406 -0.13860886 0.12843558
0000b0 5c 8d a2 bd ed 77 d0 3e 77 0e b5 3e 29 f5 03 bb
       -0.079371184 0.40716496 0.35362598 -0.002013514
0000c0 5c dc 02 bf 14 61 ce 3e c9 6c c3 3e 4f 8b fb bd
       -0.5111749 0.4030844 0.38168934 -0.122824304
0000d0 b7 41 95 be 28 3a 45 be 28 14 1e 3d 26 70 c5 bd
       -0.291517 -0.19260466 0.03859344 -0.09640531
0000e0 ac 91 a7 3e 1e bc 4c 3e be cb 01 be 8f fe 28 be
       0.32728326 0.19993636 -0.12675378 -0.16503356
0000f0 28 13 63 be 4c 04 fb 3e f9 c0 52 3e e8 95 28 3d
       -0.22175276 0.49026716 0.20581426 0.041158587
000100 10 ee 9f 3e 76 00 90 3e 37 76 ed 3e 60 af 20 3d
       0.31236315 0.28125352 0.46379253 0.03922975
000110 b3 5a 90 be 10 22 71 3e a6 5e 77 be c8 6f 3c bd
       -0.28194198 0.2354815 -0.241572 -0.04600504
000120 a9 27 e0 be ff 4f 55 be c5 1a 9c bc 5b cb 16 be
       -0.43780258 -0.20831297 -0.019055733 -0.14726011
000130 44 bf c1 3e f1 f9 b2 3e 57 6e c6 be e2 68 86 3d
       0.37841237 0.34956315 -0.38756058 0.065629736
000140 05 d3 d8 be 96 03 66 be 4a 6b 41 3e 22 c4 10 3d
       -0.42348495 -0.22462305 0.18888584 0.035343297
000150 6b cf c7 3e ee 57 2d be b8 d9 d6 3e 10 c8 b2 3b
       0.39025435 -0.16928074 0.4196298 0.005455978
000160 96 db 2b 3e 31 72 27 3e e8 03 ab 3e 8b d6 59 3d
       0.16782984 0.16352154 0.33401418 0.05318312
000170 ea 58 9a 3e 20 eb 03 3e f0 3a a3 3e 00 13 cf 3b
       0.3014596 0.12882662 0.31880903 0.0063194036
000180 16 3c 3b 3e d2 b8 d4 3e 32 91 e3 bd 5f 9a 1d be
       0.1828464 0.41547257 -0.11111678 -0.15390919
000190 84 9a b0 3e 83 11 5a 3e d1 e5 b4 be 16 bd 8e 3c
       0.34492886 0.21295743 -0.35331586 0.017424148
0001a0 18 91 04 bf 40 13 4a be e8 c6 8e 3d 6e cd 41 3e
       -0.51783895 -0.19733906 0.06971532 0.18926021
0001b0 70 f6 1f 3b aa e3 aa 3e 62 6f e2 3e 7a 80 c4 3e
       0.0024408363 0.3337682 0.44225603 0.3837927
0001c0 78 0d f3 be 0e fd 8d bd 84 4b c4 3c 34 0d 2f 3e
       -0.47471213 -0.06933032 0.02396179 0.1709488
0001d0 9d 2c 80 3d 43 45 a7 3e 73 73 6e 3e 92 97 99 be
       0.06258509 0.3267003 0.23286228 -0.2999845
0001e0 32 f4 8a be 90 96 1f 3f 8e 7a 6b bd f1 a3 0a 3e
       -0.2713943 0.62339115 -0.057489924 0.13539101
0001f0 6c 78 fd be 4d f2 8a be 9d 39 9b 3e 2a 50 78 bc
       -0.49505937 -0.27137986 0.30317393 -0.015155831
000200 ee ce 8a 3e b4 ba e9 be c4 4d 07 3f 6e cb 9f bd
       0.27111 -0.45650256 0.52853036 -0.07802473
000210 e9 6f c8 3d 05 a8 be be b8 7b 63 be 73 a1 87 be
       0.0978697 -0.37237564 -0.22215164 -0.26490363
000220 21 b6 ec be d9 c6 3f bd c2 84 6c be f8 e7 56 3e
       -0.46232703 -0.046820495 -0.23097518 0.20986927
000230 63 a1 07 3e 97 73 de 3e a3 21 b1 bc 98 ef e2 bc
       0.13245158 0.43447563 -0.021622485 -0.027702138
000240 49 2e d8 3e 39 3a c7 be a3 3f 4f be c2 0d 9f 3e
       0.42222813 -0.38911608 -0.20239119 0.31065184
000250 ef f9 13 be ea ef 4f be 4c e5 1a 3c 6a 61 19 be
       -0.14450811 -0.20306364 0.009454083 -0.14978567
000260 5e 8f 96 3d 02 05 b4 be d0 8a 24 3e c0 50 07 39
       0.07351564 -0.3516007 0.16068578 0.00012904685
000270 7b 94 27 be f2 66 d7 be 41 83 80 3d 03 23 1e 3e
       -0.16365235 -0.4207073 0.06275035 0.15443043
000280 1a 9a df be bc 9a d8 be 19 a4 f8 be fc ab e7 ba
       -0.43672258 -0.42305553 -0.48562697 -0.0017675157
000290 27 f6 fa 3e 5a 84 02 bf 3c 76 01 3e f9 26 b1 3d
       0.49015924 -0.509832 0.12642759 0.086500116
0002a0 11 ee 0b be 4a d5 6b 3d 92 c8 06 3f e2 7d bc 3e
       -0.13665034 0.057576455 0.52649796 0.3681479
0002b0 ac 19 91 3e b5 5b e1 bd 85 6a 8b be 57 dd d9 bd
       0.283399 -0.1100382 -0.27229705 -0.1063792
0002c0 17 b6 cd 3d 2b 17 c7 bd 15 58 b6 3e 19 39 6a be
       0.100444965 -0.09721216 0.35614076 -0.22873344
0002d0 12 e9 88 3d d6 81 27 bd 91 8e 76 3e 03 a2 6d 3d
       0.0668508 -0.040895306 0.24077822 0.058015835
0002e0 71 07 60 3a 01 1a 37 bd 1b 68 f8 bd 86 0c 64 be
       0.0008546031 -0.044702534 -0.121292315 -0.22270402
0002f0 7a c5 00 bf 5b b6 47 3e ea b4 96 be 1c 55 16 3c
       -0.50301325 0.19503157 -0.294349 0.009175565
000300 6c 47 0b be c0 ee 20 3e e8 8e c6 3e df 7d 48 3d
       -0.13601464 0.15716076 0.38780904 0.048948165
000310 e7 32 89 3e 2a 43 e6 3e 21 3c 42 be 5a de 85 3e
       0.26796648 0.44973117 -0.1896825 0.26146203
000320 39 46 10 bf 70 68 d9 3e c6 d4 3d be 23 fe e1 bd
       -0.5635715 0.42462492 -0.18538198 -0.11034801
000330 92 dd ff 3e 75 1f a2 be b9 e6 5f 3e ec 30 97 be
       0.49973732 -0.31664625 0.21865357 -0.29529512
000340 76 63 87 be 74 c5 f6 3e 24 82 88 be 9a 0b 72 3e
       -0.2644307 0.4819752 -0.2666179 0.23637238
000350 e2 1a 18 3f 70 89 a3 3e fb aa 1b be f8 ba ef bc
       0.5941602 0.31940794 -0.15201943 -0.029263958
000360 1e 6d d0 be 2a 8f d4 be 36 0a 1b be f4 87 30 be
       -0.4070825 -0.41515476 -0.15140614 -0.17239362
000370 1c 5a c8 3e e0 f3 5f 3e 40 bb 0f be 0b e1 05 3a
       0.39131248 0.21870375 -0.14036274 0.00051070814
000380 99 e6 e8 3e 8d 27 89 3d 03 a6 cc 3e ef a2 d7 3e
       0.45488432 0.06696997 0.39970407 0.42116496
000390 92 5c 2b be b6 42 04 bf d8 29 b8 3e c6 98 5f be
       -0.16734532 -0.5166429 0.35969424 -0.21835622
0003a0 6e a5 10 3f a1 71 c0 be ee f4 a4 3d c3 a7 99 3d
       0.56502426 -0.37586692 0.08054529 0.07502701
0003b0 38 55 3e be e8 8a a0 3e be c7 b7 be 2e 6a 79 be
       -0.18587196 0.31355977 -0.3589458 -0.2435691
0003c0 03 24 ad bd af a8 bc 3e 66 74 9a 3e a0 5e 2b 3e
       -0.08454134 0.36847445 0.3016693 0.16735315
0003d0 7e b8 8a 3e 50 d9 fa 3e 3b 0b c3 bd 44 5f 39 be
       0.2709388 0.4899392 -0.095236264 -0.18102747
0003e0 b0 4a cd 3c 75 f1 a5 3d 59 a8 95 3b 0e 65 b3 38
       0.025060028 0.08102695 0.0045671877 8.554208e-05
0003f0 ec 5f 0c 3e 40 c6 f0 3d e0 92 d0 3e e0 18 a3 3d
       0.13708466 0.11756563 0.40737057 0.07963729

net.0.bias f4 [64]
000000 d5 6c b7 3e ff 97 18 be 00 38 06 bf d3 c6 54 3e
       0.3582522 -0.14901732 -0.524292 0.2077897
000010 96 9a 1f 3e f7 d3 da 3e 2f 78 36 3e 90 32 c2 3d
       0.15586314 0.4273984 0.17819284 0.094823
000020 0f f3 34 bf 85 83 05 bf 3f 7d 83 bc 29 04 f4 3e
       -0.7068338 -0.5215381 -0.016050933 0.47659424
000030 95 9a b3 bc 71 0c 32 be 7b d8 55 3e 08 83 60 be
       -0.021924296 -0.17387559 0.20883362 -0.21924984
000040 b1 66 b9 bd 55 8e de be 73 4f e1 be c7 bf 97 be
       -0.0905279 -0.43467966 -0.44005927 -0.29638502
000050 d8 20 d9 bc e6 91 2c 3e c9 08 95 3e fc 08 a2 be
       -0.026504919 0.16852531 0.29108265 -0.3164748
000060 8e ca 99 bd 41 8d ca 3d 1d 9e ae bd 27 c6 84 3d
       -0.07509337 0.09890223 -0.085262515 0.06483107
000070 35 42 a8 3e 06 77 92 bd c0 25 9c 3e 90 2d cc 3e
       0.32863012 -0.07151608 0.3049755 0.3987851
000080 22 f5 bc 3d 38 22 d7 bd 9f ef d5 be bf c7 b1 be
       0.09226443 -0.105045736 -0.4178438 -0.34722707
000090 23 10 1b be 2d a0 06 3e ac cb 81 3e 3a 3a 5e bc
       -0.15142874 0.1314704 0.25350702 -0.013563687
0000a0 66 d7 e0 3e 31 68 22 be 77 de a5 bc 71 26 8f be
       0.43914336 -0.15860058 -0.020247681 -0.27959016
0000b0 3c 6e 3d 3e a4 c2 96 3e 10 a9 9b 3d 5c 25 07 3d
       0.18499082 0.29445374 0.076006055 0.032994613
0000c0 6c 35 54 be 6e 4a d9 be 4d 0d 85 be aa a6 e7 be
       -0.20723504 -0.42439598 -0.2598671 -0.45244342
0000d0 41 a2 a2 3e 34 c5 71 be d0 5a 70 bd 1d e8 11 bf
       0.31764415 -0.23610383 -0.058680356 -0.569948
0000e0 aa a3 31 be ca e4 e9 3e 54 5e 0a 3e ad d1 28 be
       -0.17347589 0.45682365 0.13512546 -0.16486235
0000f0 5e dc 52 3e 6c 56 ca 3e ff 12 80 3e dc 69 bd be
       0.20591876 0.3951906 0.25014493 -0.36994827

net.2.weight f4 [64, 64]
000000 e2 9e c4 3c fa e7 86 bc ff 35 d6 bd 5a c5 43 3e
       0.024001542 -0.016468037 -0.10459518 0.19118252
000010 98 6e d9 bc 26 77 3a 3d c5 fe fa bc 08 6d 37 3e
       -0.026541993 0.045523785 -0.030639062 0.17912686
000020 19 4c c0 be 84 9e 1a bd 8d ba 82 bc f0 1a 22 3e
       -0.37558058 -0.03774883 -0.015958095 0.15830588
000030 f8 a1 88 3d 50 85 f2 be 5e 5d 48 3e 67 fc f7 bc
       0.06671518 -0.47367334 0.19566867 -0.030271722
000040 d3 3c 06 3e 73 4c 50 3e 80 db 39 3f 8e 04 37 3d
       0.1310914 0.20341663 0.72600555 0.044682078
000050 4a a5 ce bd 6c 41 20 3e 17 51 a0 3d ea 5d e1 3d
       -0.1009012 0.15649956 0.07827967 0.11004241
000060 27 78 30 3d 46 fe 11 3e 10 a0 96 3d 49 ea 8c 3d
       0.043083336 0.14257154 0.07354748 0.06880624
000070 35 7a ea bc 98 af 6e 3d b4 5f a4 3d fe 9a 26 be
       -0.028622726 0.058272928 0.080260664 -0.16270062
000080 bf 3a c9 3c 0a cc b6 3d 99 09 ac 3d a7 d2 e8 bc
       0.024564145 0.08925636 0.08400268 -0.02842076
000090 d1 12 fd bc cd a8 4e bc 1e bf ff 3c 55 6c 97 bd
       -0.030892761 -0.012613487 0.031219061 -0.073937096
0000a0 0f 0d 0b be b1 db 62 3e 55 cc 96 3c 91 6f 23 bc
       -0.135792 0.22154118 0.01840798 -0.00997533
0000b0 2f 3d 15 bc 2a ee fc 3d 19 29 39 3e 02 ab da 3c
       -0.009108826 0.12350114 0.18082084 0.026692871
0000c0 0d f8 b1 bd 8e da 01 3e 87 97 79 bd 10 21 cf 3d
       -0.0868989 0.12681028 -0.060935523 0.10113728
0000d0 ef b3 95 bd 88 fc a6 3b 63 b6 88 bd c2 76 6e 3e
       -0.0730971 0.005096022 -0.066754125 0.2328749
0000e0 ef 3b 0b 3d 52 60 1a be e5 63 2b 3e f3 53 9d 3d
       0.033992704 -0.15075806 0.16737325 0.07682028
0000f0 3a ed 59 bd 4f 1c 33 3e 89 c6 f9 3d a0 1b 91 3d
       -0.053204753 0.17491268 0.12196071 0.07085347
000100 e2 b9 ea 3a ff 05 29 3e f7 d0 42 be d8 4a 06 3e
       0.0017908181 0.16506194 -0.19025026 0.13114488
000110 8a 0c db bc 3b 27 6d 3d 0c 96 31 be f8 a2 c4 bd
       -0.026739378 0.05789874 -0.17342395 -0.09601396
000120 45 4e bc 3e af 5c ce bd fe 15 89 3d 3b 12 7b 3d
       0.36778465 -0.10076272 0.06693648 0.061296683
000130 8c e6 d5 bd d3 30 d9 bd 63 86 bb 3c 9c 6d 69 be
       -0.10444364 -0.106050156 0.022891229 -0.22795719
000140 d2 7b 1e 3e 8b 14 10 be 05 9e 14 bf d4 6f 00 3e
       0.15476921 -0.14070337 -0.5805362 0.12542659
000150 f1 21 94 be 85 d5 86 3e 48 d5 2c 3e 00 29 ce bc
       -0.28932145 0.26334777 0.16878235 -0.025166035
000160 af 25 68 3d 69 da 59 3d ca 4c 5b be d3 ef 9a 3d
       0.056676563 0.053186808 -0.21416011 0.07565274
000170 db 64 8a bd 66 16 ab bd 35 3a 9e 3d bf e1 11 3d
       -0.06757518 -0.083538815 0.07725946 0.03561568
000180 84 40 37 3e c9 26 52 bd f9 2a 00 bf a1 28 1e bb
       0.17895705 -0.05130652 -0.5006557 -0.0024133103
000190 cf 27 28 bd ab d5 ff bc 1a a5 9a 3d 2b 9a 0e be
       -0.04105359 -0.031229815 0.07551022 -0.13925998
0001a0 fb 32 8b be 67 c8 4c 3e 8c b6 7a 3d 95 63 ee 3d
       -0.27187333 0.19998322 0.061209247 0.116400875
0001b0 5a 92 86 bd e4 87 ea 3c d5 4b e2 bd 53 9f d0 3d
       -0.06570883 0.02862925 -0.1104962 0.10186639
0001c0 df 99 43 bc 93 40 0f 3e 1c 78 0f be b4 d3 96 3e
       -0.011938541 0.13989477 -0.14010662 0.29458392
0001d0 dd 20 9d 3d 05 83 44 3e 97 5d 8c bd ab 7f b2 3d
       0.07672284 0.19190605 -0.06853788 0.08715757
0001e0 26 48 bb bd 1f 2d 8b 3b f0 b7 36 3e d2 49 89 bd
       -0.091446206 0.004247322 0.17843604 -0.06703533
0001f0 48 a3 47 bd 2c 84 21 bd 79 b1 59 bd 10 65 a3 3c
       -0.0487397 -0.03943269 -0.053147767 0.019945651
000200 8c 31 10 bd 50 1e 01 3b 9d a7 8e be 9c 19 c7 3d
       -0.0352035 0.0019701906 -0.27862254 0.097216815
000210 a6 84 66 bd d0 e6 63 3e f2 9d fc 3c d3 13 9b 3d
       -0.056278847 0.22256017 0.030837033 0.075721405
000220 a7 3f a5 be 69 ae 08 3d 13 2f 5c 3d 01 ed e5 3d
       -0.32275125 0.033369455 0.05375583 0.112268455
000230 36 f2 ba 3c 52 54 4a be eb 6d be 3d 43 40 ca 3d
       0.022820573 -0.19758728 0.09298309 0.09875538
000240 8f 02 fa 3d c6 8d ed 3c 73 2b 6a bd f4 01 17 3e
       0.12207519 0.028998267 -0.057170343 0.14746839
000250 ff bf 29 bc 1d fa 36 bd 3f 31 10 3e 70 be b2 bd
       -0.010360717 -0.04467212 0.14081286 -0.08727729
000260 8e cc f2 3b ea 09 9a 3c b9 e5 9d bd 4f b0 00 bd
       0.0074096387 0.018803556 -0.07709832 -0.03141814
000270 35 c5 c2 bd f6 45 b7 3d 13 30 08 3e 8d fb f4 bd
       -0.095102705 0.08948891 0.13299589 -0.11962042
000280 77 13 cb 3c 24 b5 f5 bd af 99 57 3d f5 26 c5 3d
       0.024789555 -0.119974405 0.0526368 0.09626571
000290 51 28 b0 bd 1b e3 a1 3d 7a 5c 73 bd 42 e6 cf bd
       -0.0860144 0.07904645 -0.059414364 -0.1015134
0002a0 2a 95 a2 3d d8 bf 09 be ed 6f 40 3d 86 09 12 bd
       0.07938607 -0.13452089 0.04698174 -0.035653614
0002b0 1d 17 94 3d 54 c2 cb 3d 63 b7 04 3e e6 96 b3 3d
       0.07230971 0.099491745 0.12960581 0.08769016
0002c0 67 8d 1a 3d 34 51 a3 3d fc a6 c6 3c b7 7d 83 bc
       0.037732508 0.07974473 0.024249546 -0.016051156
0002d0 1a d2 5f 3d 51 f2 29 3e e6 a4 b3 3c 4d 2f 17 3e
       0.054643728 0.16596343 0.021929216 0.14764138
0002e0 31 cb 13 3d 37 97 fb 3c b6 3f 02 3c 38 11 14 3e
       0.03608245 0.030711753 0.00794976 0.14459693
0002f0 4c 8d 92 3c cf 02 f5 3d 76 2c 56 3d 0a 45 fa bd
       0.017889641 0.11963426 0.052288495 -0.122201994
000300 4e f7 3e be 78 f5 1d bb 5e 0c 03 3e 30 a6 cd bd
       -0.18649027 -0.002410261 0.12797686 -0.100414634
000310 d1 7d 30 bd 7f 2a d7 3d 94 bc 4e bd 87 37 d9 3d
       -0.043088738 0.10506152 -0.05047281 0.10606294
000320 3d 3a be 3e 26 44 de bd b1 bf 05 3d 84 86 8b bd
       0.37153807 -0.10852842 0.032653514 -0.06812766
000330 c0 fb a7 3d 03 65 a5 3d 62 67 58 3d b9 c7 ec 3d
       0.082023144 0.08075907 0.05283297 0.115615316
000340 85 b4 df 3d 7a 65 5b 3e b8 2b b2 3d 11 d1 24 be
       0.10923103 0.21425429 0.08699745 -0.16095378
000350 0d 63 76 3e fb 62 25 3c 5c 5d 23 39 68 8c 3e bd
       0.24061222 0.0100944 0.0001557967 -0.04652062
000360 3e 67 4b 3e 38 97 fa bc cc d1 1c 3e bc d1 da bc
       0.19863603 -0.030589685 0.15314406 -0.026711337
000370 4d 49 42 3e e0 55 c1 bd 01 0f 9d 3d 1f 5b 87 3d
       0.18973275 -0.094402075 0.076688774 0.06609177
000380 fd 7f 24 bd 1e 94 8d 3d a4 b9 98 3d 9d 36 09 3c
       -0.04016112 0.06913017 0.07457283 0.008374837
000390 43 b1 99 3d 26 73 f9 bb 28 cb 20 bd 52 0f a0 3c
       0.07504513 -0.0076126037 -0.039256245 0.019538555
0003a0 47 5f 4e 3d 99 e4 db bc 31 3f d9 3c 5b dc b0 bd
       0.050383832 -0.026842402 0.02651939 -0.086357795
0003b0 d8 7b da bb 61 d0 04 be 2e 91 92 3d 96 e1 2c 3c
       -0.0066675954 -0.12970115 0.07156597 0.010551831
0003c0 6a 0d 00 3e e9 05 b0 3d e2 22 8f 3d 9e 16 8e bd
       0.12505117 0.08594877 0.06989075 -0.06937908
0003d0 7b 7b e9 3d ae 2f 8c bc 17 a9 02 3e 69 bf 66 3e
       0.11400505 -0.01711258 0.12759815 0.22533955
0003e0 0f 6d d6 bd 4a 75 b9 bd ff af c4 bd a7 e1 c3 3d
       -0.1047002 -0.09055574 -0.09603881 0.09564524
0003f0 ec de 47 3d cf ad ed bc 59 be 94 3b c6 97 98 bd
       0.04879658 -0.029013542 0.004539293 -0.074508235

net.2.bias f4 [64]
000000 9d 43 f8 bc 98 68 f4 3d c4 a1 3a 3e b7 e4 0d 3d
       -0.030305678 0.11934012 0.18225771 0.034641948
000010 c7 a1 99 3c 4d cb 2e 3a dd a6 84 3d 5f d8 b6 3d
       0.0187539 0.00066678674 0.06477139 0.08927988
000020 88 69 40 3d a5 6a 9e 3c 99 73 16 3b d1 23 f8 3b
       0.046975642 0.019337961 0.0022957085 0.007572629
000030 72 39 9a 3d fc 2b 07 3d 75 38 43 3d 18 15 54 bd
       0.07530488 0.03300093 0.047661263 -0.05177793
000040 c5 3b 0f 3c b0 e9 cd 3c 50 9d fb bd 74 3f d3 3d
       0.0087422775 0.025135845 -0.12285864 0.10314837
000050 c6 f8 24 3e aa 8f 2d 3d e6 79 20 bd ac fe 27 3e
       0.16110525 0.042373337 -0.03917875 0.16405743
000060 cc d6 24 3e f2 d5 f5 3b 22 61 49 3e 5c 2a a6 3d
       0.16097564 0.007502311 0.1966596 0.08113548
000070 c1 a9 86 3d 81 a7 28 3d ff 11 c0 bd c0 ef fd 3d
       0.06575347 0.04117537 -0.093784325 0.12399244
000080 64 5c 9e bd fb 56 b9 bd 44 02 4b 3d ec 07 3c bd
       -0.07732466 -0.09049793 0.049562708 -0.045905992
000090 b1 67 17 3e 0c bb 1d 3d 81 f1 c3 bd b5 c6 27 bc
       0.14785649 0.03850846 -0.095675476 -0.010240247
0000a0 f4 9b b5 bd ce 12 b3 3d e0 21 66 bd 59 8f b7 bd
       -0.08867636 0.08743821 -0.05618465 -0.08962888
0000b0 5b a3 62 b9 b3 95 67 3d 0e d3 a1 bd db 36 b3 bd
       -0.00021613894 0.05653925 -0.079015836 -0.08750697
0000c0 74 b3 55 bc ff d1 00 3e 0f 0a cf 3d 26 c3 26 3c
       -0.013043273 0.12580107 0.101093404 0.010178363
0000d0 a5 39 27 3d 0b 10 80 bd d3 c6 1e 3e d8 3c e9 3d
       0.04082646 -0.0625306 0.15505533 0.11388558
0000e0 81 a4 87 3d 27 0a 30 be 49 a7 58 3d 37 1c 96 bd
       0.066231735 -0.17191373 0.05289391 -0.073296
0000f0 80 fe 01 be ff 09 f3 3d a5 24 47 3d 42 26 4a bd
       -0.1269474 0.11867141 0.04861893 -0.04935289

net.4.weight f4 [2, 64]
000000 68 fd 06 3e 52 9b f1 3d e3 76 19 3d 9f bf ed bd
       0.13182604 0.11797203 0.037466895 -0.116088144
000010 bb fd 9f bd 52 76 ef bd 68 11 ae bd d1 60 c6 bd
       -0.07812067 -0.1169249 -0.08499414 -0.09686435
000020 e0 c7 88 bd ee d9 0d be 61 af d5 3d 68 e8 59 3c
       -0.06678748 -0.13852665 0.104338415 0.013300039
000030 62 cd 81 bd 62 41 ab bd 02 ec 4d bc d2 14 b1 3c
       -0.06338002 -0.0836208 -0.012568476 0.021616373
000040 37 46 1f 3e 58 45 cc 3d 50 38 f4 bc bf ea 2e 3c
       0.15554129 0.09974164 -0.029812008 0.010676085
000050 2c 1a 68 3c 9a 9c b1 3d 5e 42 4a 3d b1 f7 1e 3e
       0.014166396 0.086724475 0.0493797 0.15524174
000060 fd 38 f0 3d c9 e8 21 3e d4 a3 50 3d e2 19 99 3d
       0.1172962 0.15811457 0.05093749 0.0747564
000070 6d 51 f1 bc 52 8f 3c ba b2 ea d3 bc 10 7b 70 bc
       -0.029457772 -0.0007192987 -0.025868747 -0.014677778
000080 33 02 13 bc 92 16 f0 bd b4 a4 63 bd 54 53 c3 bc
       -0.008972692 -0.11723055 -0.055576995 -0.023843445
000090 9d 57 ab 3d ec 2f 0e 3d 5b 6f 98 bd ea 13 ca b9
       0.0836632 0.03471367 -0.07443114 -0.0003854328
0000a0 b3 32 06 3e 97 ef bd bd cd 20 47 3d 0a bc e3 bd
       0.13105278 -0.09274214 0.048615266 -0.1111985
0000b0 a4 f3 53 3a 8f 23 0d be 10 48 0f bd 1a 57 cf bc
       0.00080853165 -0.13783096 -0.034980834 -0.025310088
0000c0 34 bb b4 3d 95 f1 f4 3c 23 07 17 be e1 12 2a 3d
       0.08824769 0.029900352 -0.14748816 0.04152191
0000d0 a4 b5 34 3d 57 18 cd bd b4 6e b2 bd a5 47 5b bd
       0.04411854 -0.10014408 -0.08712521 -0.053535122
0000e0 af d4 ea bd 2f a0 2b 3e 0f 10 76 3c bb f9 ea bd
       -0.114663474 0.16760324 0.015018477 -0.114734136
0000f0 e1 fe 14 be 8a a8 7f bd 1c d2 a7 bd 2a 43 84 3c
       -0.14550354 -0.06241659 -0.08194372 0.016145308
000100 87 2d 8a 3d f4 af f3 3d 12 4e f7 3d d7 04 1e 3d
       0.06746965 0.11898795 0.120754376 0.038578834
000110 42 5b a8 bd a3 f7 b6 bd b1 cd eb bd 07 91 92 3d
       -0.08220531 -0.08933952 -0.11513842 0.07156568
000120 ae 25 42 3d 17 8e 6b 3d 36 f9 c7 bd e5 62 ed 3c
       0.047399215 0.057508554 -0.0976433 0.02897782
000130 98 1a 3b bc 84 39 16 bc 23 0a cf bd 20 fd f7 3d
       -0.011419915 -0.009168986 -0.10109355 0.12108827
000140 85 c2 a7 bd 64 14 f7 bd d6 15 80 3d 7c b9 a9 3d
       -0.081913985 -0.12064436 0.06254165 0.082873315
000150 69 c0 ab bd 8c f5 aa 3d 7d 36 d9 3d e7 14 31 be
       -0.08386309 0.083476156 0.10606096 -0.1729313
000160 fb 9c c1 3d 36 50 30 ba 29 81 9c bd 38 91 d2 3d
       0.0945377 -0.00067258195 -0.07641823 0.102816045
000170 88 6c 34 3d 90 91 d1 3d 85 ee b9 be 30 dc 8d 3d
       0.044048816 0.10232842 -0.36314788 0.06926763
000180 c8 3c bc 3d b0 71 40 3d 91 ce b7 bc 81 f3 6b 3d
       0.091912806 0.04698342 -0.022437366 0.05760527
000190 69 75 f0 bd 57 73 26 be 5d 68 54 3d d0 8e 1e 3e
       -0.11741144 -0.16254936 0.05185734 0.15484166
0001a0 8d 02 a9 bd 37 bd be 3d a1 95 b5 3d 17 da 5b bd
       -0.0825244 0.093134336 0.0886643 -0.053674784
0001b0 d1 5b c5 3d 96 68 1c 3f dc 0a b3 3d 4f 5f b9 3d
       0.09636653 0.61097085 0.08742306 0.09051382
0001c0 fb 4c 62 3c 94 35 b9 3d aa a6 44 3c 28 7d 1c be
       0.013812299 0.09043422 0.012002626 -0.15282118
0001d0 d8 c5 ab 3d d3 dc c6 bd 65 07 71 bd da ee 4d 3d
       0.08387345 -0.097100876 -0.058844943 0.050276615
0001e0 f0 5d 54 3d 22 44 10 3f 2c a4 7e 3c 56 a9 f2 bc
       0.0518474 0.5635396 0.015542071 -0.029621761
0001f0 f7 c5 3c 3f 02 cf 0b bd 9b e1 b9 3d 5d 6d 8b bd
       0.7373957 -0.034132965 0.09076234 -0.06807969

net.4.bias f4 [2]
000000 48 82 a1 bc 2d e4 f3 3b
       -0.019715443 0.007442972
